/*!***********************************************************************************************************************************************************************************************************************************************!*\
  !*** css ./node_modules/css-loader/dist/cjs.js??ruleSet[1].rules[4].use[1]!./node_modules/postcss-loader/dist/cjs.js??ruleSet[1].rules[4].use[2]!./node_modules/sass-loader/dist/cjs.js??ruleSet[1].rules[4].use[3]!./src/global-styles.scss ***!
  \***********************************************************************************************************************************************************************************************************************************************/
@charset "UTF-8";
:root {
  /* COLORS */
  --primary: #8cad7e;
  /* FONTS */
  --main-font: Inter, system-ui, -apple-system, sans-serif ;
  --font-weight-regular: 300;
  --font-weight-bold: 500;
  --font-weight-extra-bold: 600;
  --font-size-title: 10vw;
  --font-size-title-medium: 8vw;
  --font-size-title-small: 5vw;
  --font-size-subtitle: 4.2vw;
  --font-size-description: 4.2vw;
  /* BLOCK TOKENS */
  --logiweb-block-title-font-family: var(--main-font);
  --logiweb-block-subtitle-font-family: var(--main-font);
  --logiweb-block-text-font-family: var(--main-font);
  --logiweb-block-title-font-weight: 700;
  --logiweb-block-title-font-weight-strong: 700;
  --logiweb-block-subtitle-font-weight: 500;
  --logiweb-block-text-font-weight: 400;
  --logiweb-block-title-color: #132541;
  --logiweb-block-title-color-inverse: #f7fbff;
  --logiweb-block-title-highlight-color: #4c70ea;
  --logiweb-block-title-highlight-color-inverse: #76a0ff;
  --logiweb-block-subtitle-color: #5072e8;
  --logiweb-block-subtitle-color-inverse: #9fb6ff;
  --logiweb-block-text-color: #6c819f;
  --logiweb-block-text-color-inverse: #97accd;
  --logiweb-block-accent-orange: #cc7a13;
  --logiweb-block-accent-white: #ffffff;
  --logiweb-block-accent-green: #67b354;
  --logiweb-block-accent-green-soft: rgba(103, 179, 84, 0.14);
  --logiweb-block-accent-blue-soft: rgba(76, 112, 234, 0.12);
  --logiweb-block-title-size-hero: 2.8rem;
  --logiweb-block-title-size-section: 2rem;
  --logiweb-block-title-size-card: clamp(1.55rem, 2.3vw, 2.35rem);
  --logiweb-block-description: 0.9rem;
  --logiweb-block-title-size-small: 1.22rem;
  --logiweb-block-subtitle-size: 0.9rem;
  --logiweb-block-subtitle-size-sm: 0.82rem;
  --logiweb-block-text-size-xlg: 1.875rem;
  --logiweb-block-text-size-lg: 1.2rem;
  --logiweb-block-text-size-md: 1.05rem;
  --logiweb-block-text-size-sm: 0.80rem;
  --logiweb-block-text-size-xs: 0.70rem;
  --logiweb-block-card-background: #ffffff;
  --logiweb-block-muted-background: #f3f5f8;
  --logiweb-block-placeholder-background: #e9edf8;
  --logiweb-block-placeholder-text: #5e6b8e;
  --logiweb-block-surface-border: #e7edf5;
  --logiweb-block-surface-shadow: 0 14px 30px rgba(24, 38, 74, 0.12);
  --logiweb-block-timeline-line: #e7ebf5;
  --logiweb-block-dark-background: linear-gradient(90deg, #10245e 0%, #0f2668 35%, #182f9f 100%);
  --logiweb-block-dark-background-mobile: linear-gradient(180deg, #11245f 0%, #132d82 100%);
  --logiweb-block-hero-badge-background: rgba(36, 64, 126, 0.46);
  --logiweb-block-hero-badge-border: rgba(114, 150, 255, 0.44);
  --logiweb-block-hero-overlay-left: linear-gradient(90deg, rgba(7, 26, 74, 0.9) 0%, rgba(8, 28, 76, 0.78) 32%, rgba(11, 31, 77, 0.56) 57%, rgba(9, 25, 66, 0.38) 77%, rgba(8, 21, 55, 0.28) 100%);
  --logiweb-block-hero-overlay-bottom: linear-gradient(180deg, rgba(4, 14, 37, 0) 54%, rgba(4, 14, 37, 0.65) 100%);
  --logiweb-block-hero-overlay-accent: radial-gradient(88% 82% at 23% 87%, rgba(27, 70, 191, 0.36) 0%, rgba(14, 41, 107, 0) 72%);
  --logiweb-block-hero-cta-shadow: 0 12px 28px rgba(55, 112, 255, 0.44);
  /* BUTTON TOKENS */
  --logiweb-btn-primary-bg: #3a83f6;
  --logiweb-btn-primary-bg-hover: #2e73df;
  --logiweb-btn-primary-text: #ffffff;
  --logiweb-btn-secondary-bg: transparent;
  --logiweb-btn-secondary-border: rgba(0, 0, 0, 0.3);
  --logiweb-btn-secondary-text: #0f1f38;
  /* Backward compatible aliases */
  --button-primary-background: var(--logiweb-btn-primary-bg);
  --button-primary-text-color: var(--logiweb-btn-primary-text);
  --button-secondary-text-color: var(--logiweb-btn-secondary-text);
  --rounded-full: 9999px;
}
html {
  font-family: Inter, system-ui, -apple-system, sans-serif !important;
}
html,
body {
  overflow-x: hidden;
  max-width: 100%;
}
/* UTILITY CLASSES */
+ .btn-primary,
.btn-secondary, .btn-secondary-white, .btn-tertiary, .btn-tertiary-white {
  text-decoration: none;
  display: flex;
  align-items: center;
  justify-content: center;
  cursor: pointer;
}
img {
  border-radius: 15px;
}
.carousel img {
  border-radius: 0;
}
.title {
  font-family: var(--main-font);
  font-weight: var(--font-weight-extra-bold);
  font-size: var(--font-size-title);
  color: black;
}
.subtitle {
  font-family: var(--main-font);
  font-weight: var(--font-weight-extra-bold);
  font-size: var(--font-size-subtitle);
  align-self: flex-start;
}
.title-medium {
  font-family: var(--main-font);
  font-weight: var(--font-weight-bold);
  font-size: var(--font-size-title-medium);
  color: black;
}
.title-small {
  font-family: var(--main-font);
  font-weight: var(--font-weight-bold);
  font-size: var(--font-size-title-small);
  color: black;
}
.description-small {
  font-family: var(--main-font);
  font-weight: var(--font-weight-regular);
  font-size: var(--font-size-description);
}
.description {
  font-family: var(--main-font);
  font-weight: var(--font-weight-regular);
  font-size: var(--font-size-description);
}
.content {
  display: flex;
  flex-direction: column;
  justify-content: center;
  align-items: center;
  gap: 10vw;
  width: 100%;
}
.container {
  display: flex;
  flex-direction: column;
  gap: 10vw;
}
.section-container {
  display: flex;
  flex-direction: column;
  align-items: center;
  justify-content: center;
  width: 90%;
  margin-top: 15%;
  margin-bottom: 15%;
  gap: 10vw;
}
.mini-container {
  display: flex;
  align-items: center;
  justify-content: center;
  flex-direction: column;
  gap: 5vw;
}
.mini-row {
  display: flex;
  gap: 1rem;
  margin-bottom: 1rem;
  flex-wrap: nowrap;
  justify-content: center;
}
.mini-container {
  flex: 1 1 0;
  max-width: 33.3333333333%;
}
.buttons {
  display: flex;
  flex-direction: row;
  align-items: center;
  justify-content: flex-start;
  width: 100%;
  gap: 5vw;
}
.bold {
  font-weight: var(--font-weight-bold);
}
.regular {
  font-weight: var(--font-weight-regular);
}
.btn-primary {
  border: none;
  background-color: var(--logiweb-btn-primary-bg);
  color: var(--logiweb-btn-primary-text);
  font-family: var(--main-font);
  font-weight: var(--font-weight-regular);
  font-size: 1rem;
  border-radius: var(--rounded-full);
  padding: 3%;
  padding-left: 5%;
  padding-right: 5%;
  transition: all 0.3s ease-in-out;
}
.btn-secondary {
  border: 1px solid rgba(0, 0, 0, 0.3);
  background: var(--logiweb-btn-secondary-bg);
  border-color: var(--logiweb-btn-secondary-border);
  color: var(--logiweb-btn-secondary-text);
  font-family: var(--main-font);
  font-weight: var(--font-weight-regular);
  font-size: 1rem;
  border-radius: var(--rounded-full);
  padding: 3%;
  padding-left: 5%;
  padding-right: 5%;
  transition: all 0.3s ease-in-out;
}
.btn-secondary-white {
  border: 1px solid rgba(255, 255, 255, 0.3);
  background: none;
  color: white;
  font-family: var(--main-font);
  font-weight: var(--font-weight-regular);
  font-size: 1rem;
  border-radius: var(--rounded-full);
  padding: 3%;
  padding-left: 5%;
  padding-right: 5%;
  transition: all 0.3s ease-in-out;
}
.btn-tertiary {
  border: none;
  background: none;
  border: none;
  font-family: var(--main-font);
  font-weight: var(--font-weight-regular);
  font-size: 1rem;
  border-radius: var(--rounded-full);
  padding: 3%;
  padding-left: 5%;
  padding-right: 5%;
  display: flex;
  flex-direction: row;
  align-items: center;
  justify-content: center;
  color: black;
}
.btn-tertiary-white {
  border: none;
  background: none;
  border: none;
  font-family: var(--main-font);
  font-weight: var(--font-weight-regular);
  font-size: 1rem;
  border-radius: var(--rounded-full);
  padding: 3%;
  padding-left: 5%;
  padding-right: 5%;
  display: flex;
  flex-direction: row;
  align-items: center;
  justify-content: center;
  color: white;
}
.btn-primary:hover {
  background-color: var(--logiweb-btn-primary-bg-hover);
  transform: scale(1.05); /* Slight zoom-in */
  /* EFFECT: LIFT WITH BOX SHADOW
  transition: box-shadow 0.3s ease-in-out, transform 0.2s ease-in-out;

  box-shadow: 0px 4px 10px rgba(0, 0, 0, 0.3);
  transform: translateY(-2px);
  */
}
.btn-secondary:hover {
  transform: scale(1.05);
  /* EFFECT: LIFT WITH BOX SHADOW: 

  box-shadow: 0px 4px 10px rgba(0, 0, 0, 0.2);
  transform: translateY(-2px);

  */
}
/* !SECTIONS */
/** SECTION TYPE 1 */
.section-type-1 .subtitle {
  align-self: center;
}
.section-type-1 .mini-container .icon {
  font-size: 8vw;
  color: var(--button-primary-background, var(--primary));
}
.section-type-block-13 .content {
  flex-direction: column !important;
}
.section-type-1 .mini-container {
  text-align: center;
}
.section-type-1 .buttons {
  justify-content: center;
}
.section-type-1 .title {
  text-align: center;
}
.section-type-1 .description {
  text-align: center;
}
/** SECTION TYPE 2 */
.section-type-2 .container-left {
  display: flex;
  flex-direction: column;
  align-items: center;
  justify-content: center;
  gap: 10vw;
}
.section-type-2 .title {
  align-self: flex-start;
}
.section-type-2 .container-right {
  max-width: 100%;
  border-radius: 15px;
  background-size: cover;
  background-repeat: no-repeat;
}
.section-type-2 .container-right img {
  width: 90vw;
  height: 40vh;
  opacity: 0;
}
/** SECTION TYPE 3 */
.section-type-3 .container-left {
  display: flex;
  flex-direction: column;
  align-items: center;
  justify-content: center;
  gap: 10vw;
}
.section-type-3 .features {
  display: flex;
  flex-direction: column;
  align-items: center;
  justify-content: center;
  gap: 10vw;
}
.section-type-3 .features-container {
  display: flex;
  flex-direction: column;
  align-items: flex-start;
  justify-content: center;
  gap: 3vw;
}
.section-type-3 .container-right {
  width: 100%;
  height: auto;
}
.section-type-3 .container-right {
  width: 100%;
  height: 90%;
  border-radius: 15px;
  background-size: cover;
  background-repeat: no-repeat;
}
.section-type-3 .container-right img {
  width: 90vw;
  height: 40vh;
  opacity: 0;
}
/** SECTION TYPE 4 */
.section-type-4 {
  position: relative;
  width: min(100%, 1920px);
  min-height: clamp(540px, 62vw, 700px);
  margin-top: 0;
  margin-bottom: 0;
  margin-left: auto;
  margin-right: auto;
  display: flex;
  flex-direction: column;
  align-items: flex-start;
  justify-content: center;
  gap: 0;
  padding: clamp(2.8rem, 7vw, 7rem) clamp(1.2rem, 7.2vw, 8.2rem);
  overflow: hidden;
  background: #0a1f52;
}
.section-type-4.image-left {
  flex-direction: column;
}
.section-type-4 .container-left {
  position: relative;
  z-index: 2;
  width: min(100%, 620px);
  display: flex;
  flex-direction: column;
  align-items: flex-start;
  justify-content: flex-start;
  gap: clamp(0.9rem, 1.4vw, 1.3rem);
}
.section-type-4 .container-left .subtitle {
  align-self: flex-start;
  font-family: var(--logiweb-block-subtitle-font-family);
  font-size: clamp(0.72rem, 0.85vw, 0.87rem);
  letter-spacing: 0.01em;
  text-transform: none;
  color: var(--logiweb-block-subtitle-color-inverse);
  font-weight: var(--logiweb-block-subtitle-font-weight);
  line-height: 1;
  margin: 0;
  padding: 0.56rem 1rem;
  border-radius: var(--rounded-full);
  border: 1px solid var(--logiweb-block-hero-badge-border);
  background: var(--logiweb-block-hero-badge-background);
  backdrop-filter: blur(2px);
}
.section-type-4 .container-left .title {
  font-family: var(--logiweb-block-title-font-family);
  font-size: clamp(2.65rem, 5.7vw, 5.05rem);
  font-weight: var(--logiweb-block-title-font-weight);
  margin: 0;
  color: var(--logiweb-block-title-color-inverse);
  line-height: 0.98;
  letter-spacing: -0.02em;
  text-wrap: balance;
}
.section-type-4 .container-left .title strong,
.section-type-4 .container-left .title em,
.section-type-4 .container-left .title mark {
  color: var(--logiweb-block-title-highlight-color-inverse);
  font-style: normal;
  background: transparent;
}
.section-type-4 .container-left .description {
  margin: 0;
  max-width: 39ch;
  color: var(--logiweb-block-text-color-inverse);
  font-size: clamp(1.02rem, 1.18vw, 1.58rem);
  line-height: 1.47;
  text-wrap: pretty;
}
.section-type-4 .benefits-list {
  display: none;
}
.section-type-4 .benefits-list .benefits-list-item {
  display: none;
}
.section-type-4 .benefits-list .description-small {
  display: none;
}
.section-type-4 .benefits-list .benefit-check {
  display: none;
}
.section-type-4 .container-left .buttons {
  display: flex;
  flex-direction: row;
  align-items: center;
  justify-content: flex-start;
  width: auto;
  margin-top: clamp(0.55rem, 1.1vw, 1rem);
}
.section-type-4 .container-left .buttons .btn-primary {
  font-family: var(--logiweb-block-text-font-family);
  font-size: clamp(0.92rem, 0.94vw, 1.02rem);
  font-weight: 600;
  line-height: 1;
  color: var(--logiweb-btn-primary-text);
  background: linear-gradient(135deg, #3d7cff 0%, #5d8cff 100%);
  border: 1px solid rgba(129, 163, 255, 0.5);
  border-radius: 999px;
  padding: 1.08rem 1.85rem;
  padding-right: 1.58rem;
  display: inline-flex;
  align-items: center;
  gap: 0.72rem;
  box-shadow: var(--logiweb-block-hero-cta-shadow);
  transition: transform 0.25s ease, box-shadow 0.25s ease;
}
.section-type-4 .container-left .buttons .btn-primary:hover {
  transform: translateY(-1px);
  box-shadow: 0 14px 30px rgba(63, 125, 255, 0.5);
}
.section-type-4 .container-left .buttons .btn-primary .material-symbols-outlined {
  font-size: 1.15rem;
  line-height: 1;
}
.section-type-4 .container-right {
  position: absolute;
  inset: 0;
  width: 100%;
  height: 100%;
  border-radius: 0;
  overflow: hidden;
  background-size: cover;
  background-repeat: no-repeat;
  background-position: center center;
  z-index: 0;
}
.section-type-4 .container-right::before {
  content: "";
  position: absolute;
  inset: 0;
  background: var(--logiweb-block-hero-overlay-left), var(--logiweb-block-hero-overlay-bottom), var(--logiweb-block-hero-overlay-accent);
  z-index: 1;
  pointer-events: none;
}
/* Backward compatibility for previously saved block-4 markup */
.section-type-4 .container-right[style*=background-image] {
  background-size: cover !important;
  background-repeat: no-repeat !important;
  background-position: center center !important;
}
.section-type-4 .container-right img {
  width: 100%;
  height: 100%;
  -o-object-fit: cover;
     object-fit: cover;
  display: block;
  opacity: 0;
}
/* Old markup used a transparent placeholder image over background-image */
.section-type-4 .container-right[style*=background-image] img {
  opacity: 0;
}
/** SECTION TYPE 5 */
.section-type-5 {
  gap: 3vw;
}
.section-type-5 .container-right {
  width: 100%;
}
/** SECTION TYPE 6 */
.section-type-6 .container-bottom {
  width: 100%;
  height: 30vh;
  border-radius: 15px;
  background-size: cover;
  background-repeat: no-repeat;
}
.section-type-6 .container-bottom img {
  width: 100%;
  opacity: 0;
}
.section-type-6 .benefits-list-item {
  display: flex;
  flex-direction: column;
  align-items: flex-start;
  text-align: left;
  gap: 1vw;
}
.section-type-6 .benefits-list-item .icon {
  font-size: 8vw;
  color: var(--button-primary-background, var(--primary));
}
.section-type-6 .container-top {
  display: flex;
  flex-direction: column;
  align-items: center;
  justify-content: center;
  gap: 5vw;
}
.section-type-6 .container-right {
  display: flex;
  flex-direction: column;
  align-items: center;
  justify-content: center;
  gap: 10vw;
}
.section-type-6 .container-right .benefits-list {
  display: flex;
  flex-direction: column;
  align-items: center;
  justify-content: center;
  gap: 10vw;
}
/** SECTION TYPE 7 */
.section-type-7 {
  gap: 15vw;
  align-items: center;
  justify-content: center;
  text-align: center;
}
.section-type-7 .container {
  display: flex;
  flex-direction: column;
  align-items: center;
  justify-content: center;
  gap: 3vw;
}
.section-type-7 .subtitle {
  align-self: center;
}
.section-type-7 .members {
  display: flex;
  flex-wrap: wrap;
  justify-content: center;
  gap: 2rem;
  max-width: 1200px;
  margin: 0 auto;
}
.section-type-7 .member {
  flex: 1 1 22%;
  max-width: 22%;
  min-width: 220px;
  box-sizing: border-box;
  display: flex;
  flex-direction: column;
  align-items: center;
  text-align: center;
}
.section-type-7 .member-photo {
  width: 200px;
  height: 200px;
  -o-object-fit: cover;
     object-fit: cover;
  border-radius: 50%;
  display: block;
  margin-bottom: 1rem;
}
.section-type-7 .member-info {
  display: flex;
  flex-direction: column;
  align-items: center;
  justify-content: center;
  gap: 3vw;
  color: black;
}
.section-type-7 .member-info .member-name {
  font-size: 5vw;
  font-weight: var(--font-weight-bold);
}
/* !!!!!!!!!!!!!!!!!!!!!!!!!!!!!!!!!!!!!!!!!!!!!!!!!!!!!!!!!!!!!!!!!!!!!!!!!!!!!!!!!!!!!!!!!!!!!!!!!!!!!!!!!!!!!!!!!!!!!!!!!!!!!!!!!!!
!!!!!!!!!!!!!!!!!!!!!!!!!!!!!!!!!!!!!!!!!!!!!!!!!!!!!!!!!!!!!!!!!!!!!!!!!!!!!!!!!!!!!!!!!!!!!!!!!!!!!!!!!!!!!!!!!!!!!!!!!!!!!!!!!!!!!!
!!!!!!!!!!!!!!!!!!!!!!!!!!!!!!!!!!!!!!!!!!!!!!!!!!!!!!!!!!!!!!!!!!!!!!!!!!!!!!!!!!!!!!!!!!!!!!!!!!!!!!!!!!!!!!!!!!!!!!!!!!!!!!!!!!!!!!*/
@media (min-width: 700px) {
  :root {
    --font-size-title: 2.5vw;
    --font-size-title-small: 1.25vw;
    --font-size-title-medium: 2vw;
    --font-size-subtitle: 0.8vw;
    --font-size-description: 1vw;
  }
  /* UTILITY CLASSES */
  .sub-container {
    display: flex;
    align-items: center;
    justify-content: center;
    flex-direction: row;
  }
  .buttons {
    gap: 0.8vw;
  }
  .btn-primary {
    font-size: 1vw;
    border-radius: 8px;
    padding: 2%;
    padding-left: 4%;
    padding-right: 4%;
  }
  .btn-secondary {
    font-size: 1vw;
    border-radius: 8px;
    padding: 2%;
    padding-left: 4%;
    padding-right: 4%;
  }
  .btn-secondary-white {
    font-size: 1vw;
    border-radius: 8px;
    padding: 1%;
    padding-left: 2%;
    padding-right: 2%;
  }
  .btn-tertiary {
    font-size: 1vw;
    padding: 2%;
    padding-left: 4%;
    padding-right: 4%;
    display: flex;
    flex-direction: row;
    align-items: center;
    justify-content: center;
  }
  .btn-tertiary-white {
    font-size: 1vw;
    padding: 1%;
    padding-left: 2%;
    padding-right: 2%;
    display: flex;
    flex-direction: row;
    align-items: center;
    justify-content: center;
    gap: 1vw;
  }
  .section-container {
    margin-top: 5%;
    margin-bottom: 5%;
    gap: 3vw;
  }
  /*! SECTION TYPES */
  /** SECTION TYPE 1 */
  .section-type-1 .title, .section-type-1 .description, .section-type-1 .buttons {
    width: 50%;
  }
  .section-type-block-13 .content {
    flex-direction: column !important;
  }
  .section-type-1 .content {
    flex-direction: row;
    gap: 5vw;
    margin-top: 3%;
    margin-bottom: 3%;
  }
  .section-type-1 .mini-container .icon {
    font-size: 3vw;
    color: var(--button-primary-background, var(--primary));
  }
  .section-type-1 .mini-container {
    width: 30%;
    gap: 1vw;
  }
  .section-type-1 .title {
    text-align: center;
  }
  /** SECTION TYPE 2 */
  .section-type-2 {
    flex-direction: row;
  }
  .section-type-2 .container-left {
    gap: 3vw;
  }
  .section-type-2 .container-right img {
    width: 50vw;
    max-height: 80vh;
    height: auto;
  }
  /** SECTION TYPE 3 */
  .section-type-3 {
    flex-direction: row;
  }
  .section-type-3 .container-left {
    gap: 3vw;
    align-items: flex-start !important;
  }
  .section-type-3 .features {
    flex-direction: row;
    gap: 3vw;
  }
  .section-type-3 .features-container {
    gap: 1vw;
  }
  .section-type-3 .container-right img {
    width: 50vw;
    max-height: 80vh;
    height: auto;
  }
  .section-type-3 .container-right {
    width: 50%;
    border-radius: 15px;
    background-size: cover;
    background-repeat: no-repeat;
  }
  /** SECTION TYPE 4 */
  .section-type-4 {
    min-height: clamp(560px, 53vw, 690px);
    padding-left: clamp(3rem, 8.4vw, 9.2rem);
    padding-right: clamp(3rem, 8.4vw, 9.2rem);
    padding-top: clamp(3.6rem, 7vw, 6.8rem);
    padding-bottom: clamp(3.6rem, 6vw, 5.8rem);
  }
  .section-type-4.image-left {
    flex-direction: row;
  }
  .section-type-4 .container-left {
    width: min(100%, 680px);
    align-items: flex-start;
    justify-content: center;
    gap: clamp(0.95rem, 1.35vw, 1.35rem);
  }
  .section-type-4 .container-left .subtitle {
    padding: 0.62rem 1.12rem;
    font-size: clamp(0.75rem, 0.72vw, 0.84rem);
  }
  .section-type-4 .container-left .title {
    font-size: clamp(3rem, 4.35vw, 5.25rem);
    line-height: 0.96;
  }
  .section-type-4 .container-left .description {
    max-width: 38ch;
    font-size: clamp(1.12rem, 1.2vw, 1.45rem);
    line-height: 1.5;
  }
  .section-type-4 .container-left .buttons {
    margin-top: clamp(0.75rem, 1.2vw, 1.2rem);
  }
  .section-type-4 .container-left .buttons .btn-primary {
    font-size: clamp(0.95rem, 0.92vw, 1.06rem);
    padding: 1.13rem 1.95rem;
    padding-right: 1.68rem;
    gap: 0.82rem;
  }
  .section-type-4 .container-right {
    width: 100%;
    border-radius: 0;
  }
  .section-type-4 .benefits-list .benefits-list-item {
    display: none;
  }
  .section-type-4 .benefits-list {
    display: none;
  }
  /** SECTION TYPE 5 */
  .section-type-5 {
    margin-top: 10%;
    margin-bottom: 10%;
    flex-direction: row !important;
    width: 90%;
    padding: 3%;
    justify-content: space-between;
    background: rgba(217, 217, 217, 0.58);
    border: 1px solid white;
    box-shadow: 12px 17px 51px rgba(0, 0, 0, 0.22);
    backdrop-filter: blur(6px);
    border-radius: 17px;
    text-align: center;
    cursor: pointer;
    transition: all 0.5s;
    -webkit-user-select: none;
       -moz-user-select: none;
            user-select: none;
    font-weight: bolder;
    color: black;
  }
  .section-type-5:hover {
    border: 1px solid black;
    transform: scale(1.05);
  }
  .section-type-5:active {
    transform: scale(0.95) rotateZ(1.7deg);
  }
  .section-type-5 .container-left {
    width: 100%;
    display: flex;
    flex-direction: column;
  }
  .section-type-5 .container-right {
    display: flex;
    justify-content: flex-end;
  }
  .section-type-5 .buttons {
    justify-content: flex-end;
    width: 50%;
  }
  /** SECTION TYPE 6 */
  .section-type-6 .container-top {
    display: flex;
    flex-direction: row;
    align-items: flex-start;
    justify-content: center;
    gap: 5vw;
  }
  .section-type-6 .container-right .benefits-list {
    display: flex;
    flex-direction: row;
    align-items: center;
    justify-content: center;
    gap: 5vw;
  }
  .section-type-6 .benefits-list-item .icon {
    font-size: 2vw;
    color: var(--button-primary-background, var(--primary));
  }
  .section-type-6 .container-right {
    gap: 3vw;
  }
  /** SECTION TYPE 7 */
  .section-type-7 {
    gap: 5vw;
  }
  .section-type-7 .container {
    display: flex;
    flex-direction: column;
    align-items: center;
    justify-content: center;
    gap: 1vw;
    width: 50%;
  }
  .section-type-7 .members {
    display: flex;
    flex-wrap: wrap;
    justify-content: center;
    gap: 2rem;
    max-width: 1200px;
    margin: 0 auto;
  }
  .section-type-7 .member {
    flex: 1 1 22%;
    max-width: 22%;
    min-width: 220px;
    box-sizing: border-box;
    display: flex;
    flex-direction: column;
    align-items: center;
    text-align: center;
  }
  .section-type-7 .member-info {
    gap: 0.5vw;
  }
  .section-type-7 .member-info .member-name {
    font-size: 1.2vw;
    font-weight: var(--font-weight-bold);
  }
  .section-type-7 .member-photo {
    width: 10vw;
    height: 10vw; /* Set height equal to width */
  }
}
/* New Carousel Styles */
.carousel-block {
  position: relative;
  width: 100%;
}
.carousel-block .carousel-images {
  display: flex;
  flex-direction: row;
  justify-content: center;
  align-items: center;
  gap: 2rem;
  width: 100%;
  flex-wrap: nowrap;
  position: relative;
}
/* Position arrows absolutely, vertically centered, at the sides of the images */
.carousel-block .carousel-prev,
.carousel-block .carousel-next {
  position: absolute;
  top: 50%;
  transform: translateY(-50%);
  background: none;
  border: none;
  outline: none;
  box-shadow: none;
  cursor: pointer;
  font-size: 2.5rem;
  color: #009688;
  display: flex;
  align-items: center;
  justify-content: center;
  transition: color 0.2s;
  z-index: 2;
  padding: 0 0.5rem;
}
.carousel-block .carousel-prev {
  left: 0;
  /* Optional: move a bit more left if needed */
}
.carousel-block .carousel-next {
  right: 0;
  /* Optional: move a bit more right if needed */
}
.carousel-block .carousel-prev:disabled,
.carousel-block .carousel-next:disabled {
  opacity: 0.3;
  cursor: default;
}
.carousel-block .carousel-prev:focus,
.carousel-block .carousel-next:focus {
  outline: none;
  box-shadow: none;
}
/* Aggiorna i pallini (dots) */
.carousel-block .carousel-dots {
  display: flex;
  justify-content: center;
  align-items: center;
  gap: 0.5rem;
  margin-top: 1.5rem;
  position: absolute;
  left: 50%;
  transform: translateX(-50%);
  bottom: -2.5rem; /* posiziona sotto le immagini */
  width: auto;
  z-index: 3;
}
/* Riduci la distanza delle frecce dalle immagini */
.carousel-block .carousel-prev {
  left: -2.5rem; /* più vicino alle immagini */
}
.carousel-block .carousel-next {
  right: -2.5rem; /* più vicino alle immagini */
}
/* Responsive: avvicina ancora di più su schermi piccoli */
@media (max-width: 900px) {
  .carousel-block .carousel-prev {
    left: -1.2rem;
  }
  .carousel-block .carousel-next {
    right: -1.2rem;
  }
  .carousel-block .carousel-dots {
    bottom: -2rem;
  }
}
@media (max-width: 600px) {
  .carousel-block .carousel-images {
    gap: 1rem;
  }
}
/* promise boxes styles */
@media (max-width: 900px) {
  .promise-grid-content {
    flex-direction: column !important;
    align-items: stretch !important;
  }
  .promise-main-title-col {
    justify-content: flex-start !important;
    margin-bottom: 2rem;
  }
  .promise-boxes {
    flex-direction: column !important;
    align-items: stretch !important;
  }
  .promise-box {
    min-width: unset !important;
    max-width: unset !important;
    width: 100% !important;
  }
}
.promise-grid-block {
  width: 100%;
  display: flex;
  justify-content: center;
  align-items: center;
  flex-direction: column;
}
.promise-grid-content {
  width: 80%;
  display: flex;
  flex-wrap: wrap;
  gap: 2rem;
  align-items: flex-start;
  justify-content: center;
}
.promise-main-title-col {
  flex: 1 1 320px;
  min-width: 260px;
  display: flex;
  align-items: center;
  justify-content: center;
}
.promise-boxes {
  flex: 2 1 600px;
  display: flex;
  flex-wrap: wrap;
  gap: 2rem;
  justify-content: flex-start;
}
.promise-box {
  background: #f4f6f8;
  border-radius: 24px;
  padding: 2rem;
  min-width: 320px;
  max-width: 420px;
  flex: 1 1 320px;
  display: flex;
  flex-direction: column;
  align-items: flex-start;
  box-shadow: none;
}
.promise-section {
  width: 80%;
  background: none;
  padding: 0;
}
.promise-row {
  display: flex;
  gap: 2rem;
  justify-content: center;
  align-items: flex-start;
  margin-bottom: 2rem;
  flex-wrap: wrap;
}
.promise-row--top {
  margin-bottom: 2rem;
}
.promise-title-col {
  display: flex;
  align-items: center;
  justify-content: center;
  height: 320px;
}
.promise-box--top {
  flex: 1 1 60%;
}
.promise-box {
  background: #f4f6f8;
  border-radius: 24px;
  padding: 2rem;
  min-width: 320px;
  max-width: 500px;
  flex: 1 1 50%;
  display: flex;
  flex-direction: column;
  align-items: flex-start;
  color: #222;
}
.promise-icon {
  width: 48px;
  height: 48px;
  margin-bottom: 1rem;
}
.promise-box-desc {
  color: #222;
  font-size: 1rem;
  font-weight: 400;
  margin: 0;
}
@media (max-width: 900px) {
  .promise-row {
    flex-direction: column;
    align-items: stretch;
  }
  .promise-title-col,
  .promise-box--top,
  .promise-box {
    min-width: unset;
    max-width: unset;
    width: 100%;
  }
}
.promise-box,
.promise-box--top {
  background: #f4f6f8;
  border-radius: 24px;
  padding: 2.5rem 2rem;
  width: 500px;
  min-width: 320px;
  max-width: 500px;
  min-height: 260px;
  height: 320px;
  display: flex;
  flex-direction: column;
  align-items: flex-start;
  box-shadow: none;
  box-sizing: border-box;
  justify-content: flex-start;
}
.promise-title {
  font-size: 3rem;
  font-weight: bold;
  color: #222;
  margin: 0 0 2rem 0;
  text-align: left;
  min-width: 320px;
  max-width: 500px;
}
.promise-box-title {
  color: #6eb1be;
  font-size: 2rem;
  font-weight: bold;
  margin: 0 0 0.7rem 0;
}
/* Descrizione box più grande */
.promise-box-desc {
  color: #222;
  font-size: 1.1rem;
  font-weight: 400;
  margin: 0;
}
@media (max-width: 900px) {
  .promise-box,
  .promise-box--top {
    width: 100% !important;
    min-width: unset !important;
    max-width: unset !important;
    height: auto !important;
    min-height: 220px;
  }
  .promise-title {
    font-size: 2.2rem;
  }
  .promise-box-title {
    font-size: 1.5rem;
  }
  .promise-box_desc {
    font-size: 1rem;
  }
}
.popup-boxes-row {
  display: flex;
  gap: 2rem;
  justify-content: center;
  align-items: stretch;
  flex-wrap: wrap;
}
@media (max-width: 900px) {
  .popup-boxes-row {
    flex-direction: column;
    gap: 1.5rem;
    align-items: stretch;
  }
  .popup-box {
    max-width: 100% !important;
    width: 100% !important;
  }
}
.popup-box {
  background: #fff;
  border-radius: 24px;
  box-shadow: 0 2px 12px rgba(0, 0, 0, 0.07);
  padding: 3rem 2.5rem;
  min-width: 420px;
  max-width: 600px;
  min-height: 320px;
  height: 380px;
  cursor: pointer;
  text-align: center;
  position: relative;
  border: 2px solid #1565a5;
  display: flex;
  flex-direction: column;
  align-items: center;
  justify-content: center;
}
.popup-modal-content {
  background: #fff;
  border-radius: 24px;
  padding: 2rem 2rem 2rem 2rem;
  min-width: 320px;
  max-width: 90vw;
  box-shadow: 0 8px 32px rgba(0, 0, 0, 0.15);
  position: relative;
}
.popup-modal-close {
  position: absolute;
  top: 1.2rem;
  right: 1.2rem;
  background: none;
  border: none;
  font-size: 2.5rem;
  cursor: pointer;
  color: #1565a5;
  z-index: 2;
  line-height: 1;
}
.popup-modal-content h2 {
  margin-top: 3rem; /* Spazio extra sotto la X */
}
.popup-title {
  margin-right: 2rem;
  margin-bottom: 2rem;
}
.popup-boxes-main-title {
  text-align: center;
  font-size: 2.5rem;
  font-weight: bold;
  margin-bottom: 2.5rem;
}
/* FAQ Block Styles */
.faq-accordion-block {
  max-width: 1200px;
  margin: 2rem auto;
  font-family: "Lexend Deca", Arial, sans-serif;
}
.faq-category {
  margin-bottom: 1.6rem;
}
.faq-category-title-row,
.faq-category-head {
  display: flex;
  align-items: center;
  gap: 0.75rem;
  margin-bottom: 0.8rem;
}
.faq-category-title-icon,
.faq-category-icon-picker {
  width: 34px;
  height: 34px;
  border-radius: 10px;
  display: inline-flex;
  align-items: center;
  justify-content: center;
  background: #eef1ff;
  color: #4f63de;
  overflow: hidden;
}
.faq-category-icon-picker img,
.faq-category-title-icon img {
  width: 18px;
  height: 18px;
  -o-object-fit: contain;
     object-fit: contain;
}
.faq-category-title {
  margin: 0;
  color: #212843;
  font-size: clamp(1.3rem, 2.2vw, 2rem);
  line-height: 1.2;
  font-weight: 700;
}
.faq-item {
  border: 1px solid #e0e0e0;
  border-radius: 16px;
  margin-bottom: 1.2rem;
  background: #fff;
  overflow: hidden;
  transition: box-shadow 0.2s;
  box-shadow: 0 2px 8px rgba(0, 0, 0, 0.03);
}
.faq-item.open,
.faq-item:focus-within {
  box-shadow: 0 4px 16px rgba(21, 101, 165, 0.08);
  border-color: #1565a5;
}
.faq-question-row {
  display: flex;
  align-items: center;
  cursor: pointer;
  padding: 1.2rem 2rem;
  background: #f8fafd;
  transition: background 0.2s;
  outline: none;
}
.faq-item.open .faq-question-row {
  background: #eaf3fa;
}
.faq-question-row:hover {
  background: #eaf3fa;
}
.faq-question-row img,
.faq-question-row span[style*="font-size: 22"] {
  width: 28px !important;
  height: 28px !important;
  margin-right: 1.2rem;
  -o-object-fit: contain;
     object-fit: contain;
  display: inline-block;
}
.faq-question {
  font-weight: 600;
  font-size: 1.15rem;
  flex: 1;
  letter-spacing: 0.5px;
  color: #1565a5;
}
.faq-arrow {
  margin-left: 1.2rem;
  font-size: 2rem;
  color: #1565a5;
  transition: transform 0.2s;
  -webkit-user-select: none;
     -moz-user-select: none;
          user-select: none;
}
.faq-item.open .faq-arrow {
  transform: rotate(180deg);
}
.faq-answer-row {
  display: none;
  padding: 1.5rem 2.5rem 1.7rem 4.5rem;
  background: #fff;
  font-size: 1.08rem;
  color: #222;
  border-top: 1px solid #e0e0e0;
  animation: faqFadeIn 0.3s;
}
.faq-item.open .faq-answer-row {
  display: block;
}
@keyframes faqFadeIn {
  from {
    opacity: 0;
    transform: translateY(-10px);
  }
  to {
    opacity: 1;
    transform: translateY(0);
  }
}
/* Responsive */
@media (max-width: 900px) {
  .faq-accordion-block {
    max-width: 98vw;
    padding: 0 1vw;
  }
  .faq-answer-row {
    padding: 1.2rem 1.2rem 1.2rem 2.5rem;
  }
  .faq-question-row {
    padding: 1rem 1rem;
  }
  .faq-answer-row {
    padding: 1rem 1rem 1.1rem 1.1rem;
  }
}
/* SOCIAL MEDIA BUTTONS */
.social-follow-block {
  padding: 2.5rem 0;
  text-align: center;
  margin-top: 5%;
  margin-bottom: 5%;
}
.social-follow-title {
  font-size: 2.2rem;
  font-weight: bold;
  margin-bottom: 2.5rem;
}
/* FAQ V2 (categorized) */
.faqv2-block {
  max-width: 900px;
  margin: 0 auto;
  padding: clamp(20px, 3.5vw, 36px) clamp(10px, 2vw, 20px);
  background: none;
}
.faqv2-filter-bar {
  display: flex;
  flex-wrap: wrap;
  gap: 0.8rem;
  align-items: center;
  margin-bottom: clamp(22px, 3vw, 32px);
}
.faqv2-filter-pill {
  -webkit-appearance: none;
     -moz-appearance: none;
          appearance: none;
  border: none !important;
  background: rgb(243, 244, 246);
  color: #42506d;
  display: inline-flex;
  align-items: center;
  justify-content: center;
  gap: 0.55rem;
  min-height: 48px;
  padding: 0.8rem 1.15rem;
  border-radius: 999px;
  font-size: 0.875rem;
  font-weight: 600;
  line-height: 1;
  cursor: pointer;
  box-shadow: 0 10px 24px rgba(30, 42, 72, 0.05);
  transition: background-color 0.2s ease, color 0.2s ease, border-color 0.2s ease, transform 0.2s ease, box-shadow 0.2s ease;
}
.faqv2-filter-pill i {
  font-size: 0.9rem;
}
.faqv2-filter-pill:hover {
  transform: translateY(-1px);
  border-color: #b8c7f2;
  color: #24314e;
  box-shadow: 0 14px 30px rgba(54, 79, 157, 0.1);
}
.faqv2-filter-pill:focus-visible {
  outline: 0;
  border-color: #6f84eb;
  box-shadow: 0 0 0 3px rgba(111, 132, 235, 0.18);
}
.faqv2-filter-pill.is-active {
  border-color: #5f77ea;
  background: linear-gradient(135deg, #6d83ef 0%, #4a63dc 100%);
  color: #ffffff;
  box-shadow: 0 16px 34px rgba(76, 96, 196, 0.24);
}
.faqv2-category {
  padding: clamp(18px, 2.8vw, 30px);
  margin-bottom: clamp(22px, 3vw, 30px);
}
.faqv2-category-editor-head {
  display: grid;
  grid-template-columns: minmax(220px, 1fr) minmax(220px, 1fr) auto;
  gap: 0.65rem;
  align-items: end;
  margin-bottom: 0.7rem;
}
.faqv2-category-title-row {
  display: inline-flex;
  align-items: center;
  gap: 0.8rem;
  margin-bottom: 1.1rem;
  background: none !important;
}
.faqv2-category-icon-wrap {
  width: 46px;
  height: 46px;
  border-radius: 15px;
  background: linear-gradient(135deg, #eef2ff 0%, #e1e8ff 100%);
  color: #5870e3;
  display: inline-flex;
  align-items: center;
  justify-content: center;
  font-size: 1.08rem;
}
.faqv2-category-title {
  margin: 0;
  color: #1f2944;
  font-size: var(--logiweb-block-text-size-lg);
  line-height: 1.15;
  font-weight: 700;
}
.faqv2-items {
  display: flex;
  flex-direction: column;
  gap: 0.85rem;
}
.faqv2-item {
  border: 1px solid #e7ebf5;
  border-radius: 18px;
  overflow: hidden;
  transition: border-color 0.2s ease, box-shadow 0.2s ease, background-color 0.2s ease;
}
.faqv2-item:hover {
  border-color: #d6deef;
  box-shadow: 0 12px 28px rgba(35, 51, 90, 0.06);
}
.faqv2-item.is-open {
  border-color: #cfd9f4;
  background: #ffffff;
  box-shadow: 0 16px 38px rgba(35, 51, 90, 0.08);
}
.faqv2-question-row {
  width: 100%;
  border: 0;
  background: transparent;
  color: inherit;
  display: flex;
  align-items: center;
  gap: 0.8rem;
  text-align: left;
  cursor: pointer;
  padding: 1.15rem 1.15rem;
  transition: background-color 0.2s ease;
}
.faqv2-question-row:hover {
  background: rgba(111, 132, 235, 0.04);
}
.faqv2-question {
  flex: 1;
  color: #2d3650;
  font-size: var(--logiweb-block-text-size-sm);
  font-weight: 600;
}
.faqv2-arrow {
  color: #7488eb;
  font-size: 1rem;
  transition: transform 0.2s ease, color 0.2s ease;
}
.faqv2-item.is-open .faqv2-arrow {
  transform: rotate(180deg);
  color: #4f66da;
}
.faqv2-answer-row {
  display: none;
  border-top: 1px solid #e7eaf3;
  padding: 1rem 1.15rem 1.15rem;
  color: #606b85;
  font-size: 0.96rem;
  line-height: 1.75;
  background: #ffffff;
}
.faqv2-answer {
  font-size: var(--logiweb-block-text-size-sm);
}
.faqv2-answer-row p:last-child,
.faqv2-answer > *:last-child {
  margin-bottom: 0;
}
.faqv2-item.is-open .faqv2-answer-row {
  display: block;
}
@media (max-width: 900px) {
  .faqv2-filter-bar {
    justify-content: flex-start;
    margin-bottom: 24px;
  }
  .faqv2-filter-pill {
    min-height: 44px;
    padding: 0.75rem 1rem;
    font-size: 0.9rem;
    background: rgb(243, 244, 246);
  }
  .faqv2-category {
    padding: 1.1rem;
    border-radius: 22px;
  }
  .faqv2-category-editor-head {
    grid-template-columns: 1fr;
  }
  .faqv2-question-row {
    padding: 0.95rem 0.9rem;
  }
  .faqv2-answer-row {
    padding: 0.9rem 0.9rem 0.95rem;
  }
}
.social-follow-buttons {
  display: flex;
  justify-content: center;
  gap: 2rem;
  flex-wrap: wrap;
}
.social-btn {
  display: flex;
  align-items: center;
  gap: 0.8rem;
  background: #1177b3;
  color: #fff;
  font-size: 1.5rem;
  font-weight: 500;
  border-radius: 1rem;
  padding: 0.7rem 2.2rem;
  text-decoration: none;
  transition: transform 0.18s, box-shadow 0.18s;
  box-shadow: 0 2px 8px rgba(17, 119, 179, 0.08);
}
.social-btn i {
  font-size: 2.1rem;
}
.social-btn:hover, .social-btn:focus {
  transform: scale(1.07);
  box-shadow: 0 4px 16px rgba(17, 119, 179, 0.18);
  color: #fff;
}
@media (max-width: 700px) {
  .social-follow-buttons {
    flex-direction: column;
    gap: 1.2rem;
    align-items: center;
  }
  .social-btn {
    width: 90%;
    justify-content: center;
  }
}
.center-block {
  width: 90%;
  margin-left: auto;
  margin-right: auto;
  display: flex;
  align-items: center;
  justify-content: center;
  gap: 2rem;
}
.center-block img {
  width: 50vw;
  max-height: 80vh;
  height: auto;
}
/* SECTION TYPE 13 */
@media (max-width: 768px) {
  .mini-row {
    flex-wrap: wrap !important;
    gap: 1rem;
  }
  .mini-container {
    flex: 0 0 50% !important;
    max-width: 50% !important;
    box-sizing: border-box;
  }
}
/* HALF CUT IMAGE */
.overlay-text {
  position: "absolute";
  top: "50%";
  left: "50%";
  transform: "translate(-50%, -50%)";
  color: "#fff";
  text-align: "center";
  font-weight: "bold";
  text-transform: "uppercase";
  font-size: "6rem";
  letter-spacing: "2px";
  width: "90%";
  z-index: 2;
}
@media (max-width: 768px) {
  .overlay-text {
    font-size: 3rem !important;
    width: 100% !important;
  }
}
/* BLOCK TYPE 12 */
.popup-box {
  background: "#fff";
  border-radius: "24px";
  box-shadow: "0 2px 12px rgba(0,0,0,0.07)";
  padding: "2rem";
  flex: "1 1 0";
  min-width: "450px";
  max-width: "550px";
  cursor: "pointer";
  text-align: "center";
  position: "relative";
  border: "2px solid #1565a5";
}
@media (max-width: 768px) {
  .popup-box {
    width: 80% !important;
    min-width: unset !important;
  }
  .popup-boxes-row {
    align-items: center !important;
  }
}
/* Testimonials */
.testimonial-row {
  display: flex;
  gap: 2rem;
  margin-bottom: 2rem;
  flex-wrap: wrap;
}
.testimonial-row .list-item {
  flex: 1 1 0;
  min-width: 0;
  max-width: 33.33%;
  box-sizing: border-box;
}
@media (max-width: 900px) {
  .testimonial-row {
    flex-direction: column;
    align-items: center;
  }
  .testimonial-row .list-item {
    max-width: unset !important;
  }
}
@media (max-width: 600px) {
  .testimonial-row .list-item {
    max-width: unset !important;
  }
}
.testimonials .content {
  flex-direction: column !important;
}
/* ============================================================================
   Certifications Carousel & Global Fade-In Effect
   ============================================================================ */
/* Fade-in on scroll - reusable for all blocks */
.fade-in-on-scroll {
  opacity: 0;
  transform: translateY(20px);
  transition: opacity 0.8s ease-out, transform 0.8s ease-out;
}
.editor-styles-wrapper .fade-in-on-scroll,
.block-editor-page .fade-in-on-scroll {
  opacity: 1 !important;
  transform: none !important;
}
.fade-in-on-scroll.fade-in-active {
  opacity: 1;
  transform: translateY(0);
}
/* Certifications Carousel */
.certifications-carousel {
  --cert-gap: clamp(20px, 2.4vw, 44px);
  width: 100%;
  padding: clamp(34px, 4.2vw, 52px) 0;
  margin: 0 auto;
  background: #f4f5f7;
  border-top: 3px solid #202f4b;
}
.certifications-content {
  max-width: 1920px;
  margin: 0 auto;
  padding: 0 clamp(14px, 2vw, 34px);
}
.certifications-header {
  text-align: center;
  margin-bottom: clamp(18px, 2.8vw, 28px);
}
.certifications-subtitle {
  font-size: clamp(0.72rem, 0.95vw, 0.84rem);
  font-weight: 500;
  letter-spacing: 0.28em;
  text-transform: uppercase;
  color: #97a1b1;
  margin: 0;
}
.certifications-marquee {
  width: 100%;
  overflow: hidden;
}
.certifications-track {
  display: inline-flex;
  align-items: center;
  gap: var(--cert-gap);
  width: -moz-max-content;
  width: max-content;
  animation: certificationsTicker 44s linear infinite;
}
.certification-item {
  display: inline-flex;
  align-items: center;
  gap: 12px;
  white-space: nowrap;
  flex: 0 0 auto;
}
.certification-badge {
  width: 32px;
  height: 32px;
  border-radius: 0.75rem;
  display: flex;
  align-items: center;
  justify-content: center;
  font-size: 0.86rem;
  font-weight: 700;
  color: #7081a0;
}
.certification-caption {
  font-size: 15px;
  font-weight: 500;
  color: #535c6b;
  line-height: 1;
}
@keyframes certificationsTicker {
  from {
    transform: translateX(0);
  }
  to {
    transform: translateX(calc(-50% - var(--cert-gap) / 2));
  }
}
@media (max-width: 1024px) {
  .certifications-track {
    animation-duration: 36s;
  }
}
/* Responsive */
@media (max-width: 768px) {
  .certifications-carousel {
    padding: 26px 0;
  }
  .certifications-content {
    padding: 0 12px;
  }
  .certifications-subtitle {
    letter-spacing: 0.2em;
    font-size: 0.68rem;
  }
  .certifications-track {
    gap: 20px;
    animation-duration: 26s;
  }
  .certification-badge {
    width: 28px;
    height: 28px;
    font-size: 0.74rem;
  }
  .certification-caption {
    font-size: 0.9rem;
  }
}
/* ============================================================================
   Services Showcase Block
   ============================================================================ */
.services-showcase {
  width: 100%;
  padding: clamp(32px, 5vw, 64px) 0;
  margin: 0 auto;
}
.services-showcase-preview {
  width: 100%;
  max-width: 1400px;
  margin: 0 auto;
  padding: 0 clamp(16px, 5vw, 40px);
}
.services-showcase-heading {
  text-align: center;
  margin-bottom: clamp(32px, 4vw, 48px);
}
.services-showcase-subtitle {
  font-size: var(--logiweb-block-subtitle-font-size);
  font-weight: var(--logiweb-block-subtitle-font-weight);
  letter-spacing: 0.08em;
  text-transform: uppercase;
  color: var(--logiweb-block-subtitle-color, var(--primary, #8cad7e));
  margin: 0 0 12px;
  font-family: var(--logiweb-block-subtitle-font-family);
}
.services-showcase-title {
  font-size: var(--logiweb-block-title-size-section);
  font-weight: var(--logiweb-block-title-font-weight);
  color: var(--logiweb-block-title-color);
  margin: 0;
  line-height: 1.2;
  font-family: var(--logiweb-block-title-font-family);
}
.services-showcase-description {
  font-size: var(--logiweb-block-description-font-size);
  color: var(--logiweb-block-description-color, #666);
  margin: 1rem 0 0 0;
  line-height: 1.6;
}
/* Cards Grid */
.services-showcase-cards {
  display: grid;
  grid-template-columns: 1fr;
  gap: 2rem;
  margin-bottom: clamp(24px, 3vw, 36px);
}
.services-showcase-card {
  background: #fff;
  border-radius: 12px;
  overflow: hidden;
  box-shadow: 0 2px 8px rgba(0, 0, 0, 0.08);
  transition: all 0.3s ease;
  display: flex;
  flex-direction: column;
}
.services-showcase-card:hover {
  box-shadow: 0 8px 24px rgba(0, 0, 0, 0.12);
  transform: translateY(-4px);
}
.services-showcase-card-imageWrap {
  width: 100%;
  height: 200px;
  overflow: hidden;
  background: #f5f5f5;
  border-radius: 12px 12px 0 0;
}
.services-showcase-card-image {
  width: 100%;
  height: 100%;
  -o-object-fit: cover;
     object-fit: cover;
  display: block;
}
.services-showcase-card-placeholder {
  width: 100%;
  height: 100%;
  display: flex;
  align-items: center;
  justify-content: center;
  background: #f0f0f0;
  color: #999;
  font-size: 0.9rem;
}
.services-showcase-card-title {
  font-size: clamp(1.1rem, 2vw, 1.3rem);
  font-weight: 600;
  color: #1a1a1a;
  margin: 1.2rem 1.5rem 0.5rem;
  line-height: 1.3;
}
.services-showcase-card-subtitle {
  font-size: 0.95rem;
  font-weight: 500;
  color: var(--logiweb-block-subtitle-color, var(--primary, #8cad7e));
  margin: 0 1.5rem 0.8rem;
}
.services-showcase-card-description {
  font-size: 0.95rem;
  color: var(--logiweb-block-description-color, #666);
  margin: 0 1.5rem;
  line-height: 1.6;
  flex-grow: 1;
}
.services-showcase-card-link {
  color: var(--logiweb-block-link-color, var(--primary, #8cad7e));
  text-decoration: none;
  font-weight: 600;
  font-size: 0.95rem;
  margin: 1.2rem 1.5rem;
  display: inline-flex;
  align-items: center;
  gap: 0.4rem;
  transition: all 0.3s ease;
}
.services-showcase-card-link:hover {
  color: var(--logiweb-block-link-hover-color, #6a8b62);
  gap: 0.8rem;
}
.services-showcase-card-link::after {
  content: "→";
  transition: transform 0.3s ease;
}
.services-showcase-card-link:hover::after {
  transform: translateX(4px);
}
/* Footer CTA */
.services-showcase-footer {
  text-align: center;
  padding-top: clamp(24px, 3vw, 36px);
  border-top: 1px solid #e5e5e5;
  margin-top: clamp(24px, 3vw, 36px);
}
.services-showcase-footerText {
  font-size: clamp(1rem, 1.5vw, 1.1rem);
  color: #333;
  margin: 0 0 1.5rem;
  line-height: 1.6;
}
.services-showcase-button {
  display: inline-flex;
  align-items: center;
  justify-content: center;
  background-color: var(--logiweb-btn-primary-bg);
  color: var(--logiweb-btn-primary-color, white);
  text-decoration: none;
  font-weight: var(--logiweb-btn-primary-font-weight, 600);
  font-size: var(--logiweb-btn-primary-font-size, clamp(0.95rem, 1.2vw, 1.05rem));
  border-radius: var(--logiweb-btn-primary-border-radius, 999px);
  padding: clamp(12px, 2vw, 16px) clamp(24px, 4vw, 32px);
  transition: all 0.3s ease;
  cursor: pointer;
  border: none;
}
.services-showcase-button:hover {
  background-color: var(--logiweb-btn-primary-bg-hover);
  color: var(--logiweb-btn-primary-hover-color, white);
  transform: scale(1.05);
  box-shadow: 0 4px 12px rgba(0, 0, 0, 0.15);
}
/* Editor Styles */
.services-showcase-block {
  padding: 2rem;
}
.services-card-controls {
  background: #f9f9f9;
  padding: 1.5rem;
  border-radius: 8px;
  margin-bottom: 1.5rem;
  border: 1px solid #e0e0e0;
}
.services-card-controls-preview {
  margin: 1rem 0;
  border-radius: 8px;
  overflow: hidden;
  background: #f5f5f5;
}
.services-card-controls-preview-image {
  width: 100%;
  height: 150px;
  -o-object-fit: cover;
     object-fit: cover;
  display: block;
}
/* Responsive */
@media (max-width: 768px) {
  .services-showcase {
    padding: clamp(24px, 4vw, 40px) 0;
  }
  .services-showcase-cards {
    grid-template-columns: 1fr;
    gap: 1.5rem;
  }
  .services-showcase-card-imageWrap {
    height: 250px;
  }
}
@media (min-width: 769px) {
  .services-showcase-cards {
    grid-template-columns: repeat(4, 1fr);
  }
}
/* ============================================================================
   Why Choose Us Block - Stats & Benefits
   ============================================================================ */
.why-choose-us {
  width: 80%;
  padding: clamp(32px, 5vw, 64px) 0;
  margin: 0 auto;
}
.why-choose-us-preview {
  width: 100%;
  max-width: 1400px;
  margin: 0 auto;
  padding: 0 clamp(16px, 5vw, 40px);
}
.why-choose-us-heading {
  text-align: center;
  margin-bottom: clamp(32px, 4vw, 48px);
}
.why-choose-us-subtitle {
  font-family: var(--logiweb-block-subtitle-font-family);
  font-size: var(--logiweb-block-subtitle-size-sm);
  font-weight: var(--logiweb-block-subtitle-font-weight);
  letter-spacing: 0.08em;
  text-transform: uppercase;
  color: var(--logiweb-block-subtitle-color);
  margin: 0 0 12px;
}
.why-choose-us-title {
  font-family: var(--logiweb-block-title-font-family);
  font-size: var(--logiweb-block-title-size-section);
  font-weight: var(--logiweb-block-title-font-weight-strong);
  color: var(--logiweb-block-title-color);
  margin: 0;
  line-height: 1.2;
}
.why-choose-us-description {
  font-family: var(--logiweb-block-text-font-family);
  font-size: var(--logiweb-block-text-size-md);
  font-weight: var(--logiweb-block-text-font-weight);
  color: var(--logiweb-block-text-color);
  margin: 1rem 0 0 0;
  line-height: 1.6;
}
/* Stats Cards */
.why-choose-us-stats {
  display: grid;
  grid-template-columns: repeat(4, 1fr);
  gap: 2rem;
  margin-bottom: clamp(32px, 4vw, 48px);
}
.why-choose-us-stat-card {
  background: var(--logiweb-block-card-background);
  border-radius: 12px;
  padding: clamp(24px, 3vw, 32px);
  text-align: center;
  box-shadow: 0 2px 8px rgba(0, 0, 0, 0.08);
  transition: all 0.3s ease;
  border: 1px solid var(--logiweb-btn-secondary-border);
}
.why-choose-us-stat-card:hover {
  box-shadow: 0 8px 24px rgba(0, 0, 0, 0.12);
  transform: translateY(-4px);
}
.why-choose-us-stat-number {
  font-size: clamp(2rem, 5vw, 3rem);
  font-family: var(--logiweb-block-title-font-family);
  font-weight: var(--logiweb-block-title-font-weight-strong);
  color: var(--logiweb-block-title-highlight-color);
  margin-bottom: 0.5rem;
  font-variant-numeric: tabular-nums;
}
.why-choose-us-stat-label {
  font-family: var(--logiweb-block-text-font-family);
  font-size: var(--logiweb-block-text-size-md);
  color: var(--logiweb-block-text-color);
  font-weight: var(--logiweb-block-text-font-weight);
  line-height: 1.4;
}
/* Benefits Grid */
.why-choose-us-benefits {
  display: grid;
  grid-template-columns: repeat(2, 1fr);
  gap: 2rem;
  margin-bottom: 0;
}
.why-choose-us-benefit-card {
  background: var(--logiweb-block-card-background);
  border-radius: 12px;
  padding: clamp(24px, 3vw, 32px);
  box-shadow: 0 2px 8px rgba(0, 0, 0, 0.08);
  transition: all 0.3s ease;
  display: flex;
  gap: 1.5rem;
  border: 1px solid var(--logiweb-btn-secondary-border);
}
.why-choose-us-benefit-card:hover {
  box-shadow: 0 8px 24px rgba(0, 0, 0, 0.12);
  transform: translateY(-4px);
}
.why-choose-us-benefit-icon {
  flex-shrink: 0;
  display: flex;
  align-items: center;
  justify-content: center;
  width: 60px;
  height: 60px;
  min-width: 60px;
  border-radius: 12px;
  background: var(--logiweb-block-muted-background);
}
.why-choose-us-benefit-icon i {
  font-size: 1.5rem;
  color: var(--logiweb-btn-primary-bg);
}
.why-choose-us-benefit-content {
  flex: 1;
}
.why-choose-us-benefit-title {
  font-family: var(--logiweb-block-title-font-family);
  font-size: var(--logiweb-block-title-size-small);
  font-weight: var(--logiweb-block-title-font-weight);
  color: var(--logiweb-block-title-color);
  margin: 0 0 0.4rem 0;
  line-height: 1.3;
}
.why-choose-us-benefit-tag {
  display: inline-block;
  font-family: var(--logiweb-block-subtitle-font-family);
  font-size: var(--logiweb-block-subtitle-size-sm);
  font-weight: var(--logiweb-block-subtitle-font-weight);
  color: var(--logiweb-block-title-highlight-color);
  background: var(--logiweb-block-muted-background);
  padding: 0.3rem 0.8rem;
  border-radius: 4px;
  margin-bottom: 0.8rem;
  text-transform: uppercase;
  letter-spacing: 0.05em;
}
.why-choose-us-benefit-description {
  font-family: var(--logiweb-block-text-font-family);
  font-size: var(--logiweb-block-text-size-sm);
  font-weight: var(--logiweb-block-text-font-weight);
  color: var(--logiweb-block-text-color);
  margin: 0;
  line-height: 1.6;
}
/* Editor Block Styles */
.why-choose-us-block {
  padding: 2rem;
}
/* Responsive */
@media (max-width: 768px) {
  .why-choose-us {
    padding: clamp(24px, 4vw, 40px) 0;
  }
  .why-choose-us-stats {
    grid-template-columns: repeat(2, 1fr);
    gap: 1.5rem;
  }
  .why-choose-us-benefits {
    grid-template-columns: 1fr;
    gap: 1.5rem;
  }
  .why-choose-us-benefit-card {
    flex-direction: column;
    align-items: flex-start;
  }
  .why-choose-us-benefit-icon {
    width: 50px;
    height: 50px;
    min-width: 50px;
  }
  .why-choose-us-benefit-icon i {
    font-size: 1.25rem;
  }
}
@media (max-width: 480px) {
  .why-choose-us-stats {
    grid-template-columns: 1fr;
  }
  .why-choose-us-stat-number {
    font-size: 2rem;
  }
}
/* ============================================================================
   Transparent Process Timeline Block (block-20)
   ============================================================================ */
.process-timeline {
  width: 100%;
  border-radius: 0;
  padding: clamp(40px, 6vw, 72px) clamp(16px, 5vw, 40px);
  background: #0f1b3d;
  border-radius: 0px;
  box-sizing: border-box;
}
.process-timeline-inner {
  max-width: 1100px;
  margin: 0 auto;
}
.process-timeline-header {
  text-align: center;
  margin-bottom: clamp(32px, 5vw, 56px);
}
.process-timeline-title {
  font-size: var(--logiweb-block-title-size-section);
  font-weight: 700;
  color: #fff;
  margin: 0 0 0.75rem;
  line-height: 1.2;
}
.process-timeline-subtitle {
  font-size: clamp(0.95rem, 2vw, 1.1rem);
  color: rgba(255, 255, 255, 0.65);
  margin: 0;
  line-height: 1.5;
}
/* Steps row */
.process-timeline-steps {
  position: relative;
  display: flex;
  justify-content: space-between;
  align-items: flex-start;
  gap: 1rem;
  margin-bottom: clamp(32px, 5vw, 56px);
}
/* Horizontal line */
.process-timeline-line {
  position: absolute;
  top: 26px; /* center of circle */
  left: calc(1.5rem + 26px); /* start after first circle center */
  right: calc(1.5rem + 26px);
  height: 2px;
  background: rgba(255, 255, 255, 0.15);
  z-index: 0;
  overflow: hidden;
}
.process-timeline-line-fill {
  height: 100%;
  width: 0%;
  background: #3b5bdb;
  transition: width 0.6s ease;
}
/* Individual step */
.process-step {
  position: relative;
  z-index: 1;
  flex: 1;
  display: flex;
  flex-direction: column;
  align-items: center;
  text-align: center;
  gap: 1rem;
  cursor: pointer;
  opacity: 0.45;
  transition: opacity 0.4s ease;
}
.process-step.is-active {
  opacity: 1;
}
.process-step-circle {
  width: 52px;
  height: 52px;
  border-radius: 50%;
  background: rgba(255, 255, 255, 0.1);
  border: 2px solid rgba(255, 255, 255, 0.2);
  display: flex;
  align-items: center;
  justify-content: center;
  font-size: 1.1rem;
  font-weight: 700;
  color: rgba(255, 255, 255, 0.5);
  transition: all 0.4s ease;
  flex-shrink: 0;
}
.process-step.is-active .process-step-circle {
  background: #3b5bdb;
  border-color: #3b5bdb;
  color: #fff;
  box-shadow: 0 0 0 6px rgba(59, 91, 219, 0.25);
}
.process-step-content {
  display: flex;
  flex-direction: column;
  gap: 0.4rem;
}
.process-step-title {
  font-size: clamp(0.9rem, 1.5vw, 1rem);
  font-weight: 700;
  color: #fff;
  margin: 0;
  line-height: 1.3;
}
.process-step-description {
  font-size: clamp(0.78rem, 1.2vw, 0.88rem);
  color: rgba(255, 255, 255, 0.55);
  margin: 0;
  line-height: 1.5;
}
/* CTA */
.process-timeline-cta {
  text-align: center;
}
.process-timeline-btn {
  display: inline-flex;
  align-items: center;
  gap: 0.6rem;
  background: #3b5bdb;
  color: #fff;
  font-size: 1rem;
  font-weight: 600;
  padding: 0.85rem 2rem;
  border-radius: 50px;
  text-decoration: none;
  transition: background 0.3s ease, transform 0.2s ease;
}
.process-timeline-btn i {
  font-size: 0.95rem;
}
.process-timeline-btn:hover {
  background: #2f4ac4;
  transform: translateY(-2px);
  color: #fff;
}
/* Editor preview wrapper */
.process-timeline-block .process-timeline {
  border-radius: 16px;
}
/* Responsive */
@media (max-width: 768px) {
  .process-timeline {
    width: 90%;
    padding: clamp(32px, 6vw, 48px) clamp(16px, 5vw, 24px);
  }
  .process-timeline-steps {
    flex-direction: column;
    align-items: flex-start;
    gap: 1.5rem;
  }
  .process-timeline-line {
    top: 26px;
    left: 25px;
    right: auto;
    width: 2px;
    height: calc(100% - 26px);
    bottom: 0;
  }
  .process-step {
    flex-direction: row;
    text-align: left;
    align-items: flex-start;
    gap: 1rem;
  }
  .process-step-content {
    padding-top: 0.25rem;
  }
  .process-timeline-btn {
    font-size: 0.9rem;
    padding: 0.75rem 1.5rem;
  }
}
/* ============================================================================
   Featured Projects Grid (block-21)
   ============================================================================ */
.fp-section {
  width: 100%;
  padding: clamp(40px, 6vw, 80px) 0;
}
.fp-inner {
  max-width: 1280px;
  margin: 0 auto;
  padding: 0 clamp(16px, 5vw, 40px);
}
/* Header */
.fp-header {
  display: flex;
  align-items: flex-start;
  flex-direction: column;
  justify-content: space-between;
  gap: 2rem;
  margin-bottom: clamp(32px, 5vw, 56px);
}
.fp-header-left {
  flex: 0 0 auto;
  max-width: 600px;
}
.fp-header-right {
  flex: 1;
  padding-top: 0.5rem;
}
.fp-subtitle {
  font-family: var(--logiweb-block-subtitle-font-family);
  font-size: var(--logiweb-block-subtitle-size-sm);
  font-weight: var(--logiweb-block-subtitle-font-weight);
  letter-spacing: 0.1em;
  text-transform: uppercase;
  color: var(--logiweb-block-subtitle-color);
  margin: 0 0 0.6rem;
}
.fp-title {
  font-family: var(--logiweb-block-title-font-family);
  font-size: var(--logiweb-block-title-size-section);
  font-weight: var(--logiweb-block-title-font-weight-strong);
  color: var(--logiweb-block-title-color);
  margin: 0;
  line-height: 1.2;
}
.fp-title-highlight {
  color: var(--logiweb-block-title-highlight-color);
}
.fp-description {
  font-family: var(--logiweb-block-text-font-family);
  font-size: var(--logiweb-block-text-size-sm);
  font-weight: var(--logiweb-block-text-font-weight);
  color: var(--logiweb-block-text-color);
  line-height: 1.6;
  margin: 0;
  max-width: 400px;
}
/* Grid */
.fp-grid {
  display: grid;
  grid-template-columns: repeat(2, 1fr);
  gap: 1.25rem;
  margin-bottom: clamp(32px, 5vw, 56px);
}
/* Card */
.fp-card {
  position: relative;
  border-radius: 16px;
  overflow: hidden;
  min-height: 288px;
  background-color: var(--logiweb-block-title-color);
  background-size: cover;
  background-position: center;
  display: flex;
  flex-direction: column;
  justify-content: flex-end;
  transition: transform 0.3s ease, box-shadow 0.3s ease;
}
.fp-card:hover {
  transform: translateY(-4px);
  box-shadow: 0 16px 40px rgba(0, 0, 0, 0.2);
}
.fp-card-overlay {
  position: absolute;
  inset: 0;
  background: linear-gradient(to top, rgba(0, 0, 0, 0.82) 0%, rgba(0, 0, 0, 0.35) 50%, rgba(0, 0, 0, 0.05) 100%);
  border-radius: inherit;
}
.fp-card-body {
  position: relative;
  z-index: 1;
  padding: 1.25rem 1.5rem 1.5rem;
  display: flex;
  flex-direction: column;
  gap: 0.6rem;
}
/* Tags */
.fp-card-tags {
  display: flex;
  align-items: center;
  gap: 0.5rem;
  flex-wrap: wrap;
}
.fp-tag {
  display: inline-flex;
  align-items: center;
  gap: 0.35rem;
  font-size: 0.72rem;
  font-weight: 600;
  padding: 0.25rem 0.65rem;
  border-radius: 50px;
}
.fp-tag i {
  font-size: 0.65rem;
}
.fp-tag-stat {
  background: rgba(255, 255, 255, 0.15);
  color: #fff;
  backdrop-filter: blur(4px);
}
/* Card content */
.fp-card-title {
  font-family: var(--logiweb-block-title-font-family);
  font-size: var(--logiweb-block-title-size-small);
  font-weight: var(--logiweb-block-title-font-weight-strong);
  color: var(--logiweb-block-title-color-inverse);
  margin: 0;
  line-height: 1.3;
}
.fp-card-description {
  font-family: var(--logiweb-block-text-font-family);
  font-size: var(--logiweb-block-subtitle-size-sm);
  font-weight: var(--logiweb-block-text-font-weight);
  color: var(--logiweb-block-text-color-inverse);
  margin: 0;
  line-height: 1.5;
}
/* Actions */
.fp-card-actions {
  display: flex;
  align-items: center;
  gap: 0.6rem;
  margin-top: 0.25rem;
}
.fp-card-btn {
  display: inline-flex;
  align-items: center;
  gap: 0.4rem;
  background: var(--logiweb-block-card-background);
  color: var(--logiweb-block-title-color);
  font-family: var(--logiweb-block-subtitle-font-family);
  font-size: var(--logiweb-block-subtitle-size-sm);
  font-weight: var(--logiweb-block-subtitle-font-weight);
  padding: 0.5rem 1rem;
  border-radius: 50px;
  text-decoration: none;
  transition: background 0.2s ease;
}
.fp-card-btn:hover {
  background: var(--logiweb-block-card-background);
  color: var(--logiweb-block-title-color);
}
.fp-card-btn i {
  font-size: 0.75rem;
}
.fp-card-external {
  display: inline-flex;
  align-items: center;
  justify-content: center;
  width: 32px;
  height: 32px;
  background: rgba(255, 255, 255, 0.15);
  border-radius: 50%;
  color: var(--logiweb-block-title-color-inverse);
  font-size: 0.75rem;
  text-decoration: none;
  backdrop-filter: blur(4px);
  transition: background 0.2s ease;
}
.fp-card-external:hover {
  background: rgba(255, 255, 255, 0.3);
  color: var(--logiweb-block-title-color-inverse);
}
/* Bottom CTA */
.fp-cta {
  text-align: center;
}
.fp-cta-btn {
  display: inline-flex;
  align-items: center;
  gap: 0.5rem;
  background: var(--logiweb-btn-primary-bg);
  color: var(--logiweb-btn-primary-text);
  font-family: var(--logiweb-block-subtitle-font-family);
  font-size: var(--logiweb-block-text-size-sm);
  font-weight: var(--logiweb-block-subtitle-font-weight);
  padding: 0.85rem 2.25rem;
  border-radius: 50px;
  text-decoration: none;
  transition: background 0.3s ease, transform 0.2s ease;
}
.fp-cta-btn i {
  font-size: 0.85rem;
}
.fp-cta-btn:hover {
  background: var(--logiweb-btn-primary-bg-hover);
  color: var(--logiweb-btn-primary-text);
  transform: translateY(-2px);
}
/* Editor wrapper */
.fp-block-editor .fp-section {
  padding: 1.5rem 0;
}
/* Responsive */
@media (max-width: 768px) {
  .fp-header {
    flex-direction: column;
    gap: 1rem;
  }
  .fp-header-right {
    padding-top: 0;
  }
  .fp-description {
    max-width: 100%;
  }
  .fp-grid {
    grid-template-columns: 1fr;
    gap: 1rem;
  }
  .fp-card {
    min-height: 260px;
  }
  .fp-card-title {
    font-size: var(--logiweb-block-title-size-small);
  }
}
/* ============================================================================
   CTA Hero — Let's Work Together (block-22)
   ============================================================================ */
.cta-hero {
  position: relative;
  width: 100%;
  background: #060e2b;
  overflow: hidden;
  padding: clamp(56px, 8vw, 100px) clamp(16px, 5vw, 40px);
  box-sizing: border-box;
}
.cta-hero-bg-glow {
  position: absolute;
  inset: 0;
  background: radial-gradient(ellipse 60% 55% at 50% 45%, rgba(59, 91, 219, 0.28) 0%, transparent 70%), radial-gradient(ellipse 30% 30% at 20% 60%, rgba(59, 91, 219, 0.12) 0%, transparent 70%);
  pointer-events: none;
}
.cta-hero-dots {
  position: absolute;
  inset: 0;
  pointer-events: none;
}
.cta-hero-dots span {
  position: absolute;
  width: 10px;
  height: 10px;
  border: 1.5px solid rgba(255, 255, 255, 0.18);
  border-radius: 2px;
}
.cta-hero-dots span:nth-child(1) {
  top: 18%;
  left: 12%;
}
.cta-hero-dots span:nth-child(2) {
  top: 22%;
  right: 8%;
}
.cta-hero-dots span:nth-child(3) {
  bottom: 30%;
  left: 7%;
}
.cta-hero-dots span:nth-child(4) {
  bottom: 20%;
  right: 14%;
}
.cta-hero-inner {
  position: relative;
  z-index: 1;
  max-width: 700px;
  margin: 0 auto;
  text-align: center;
  display: flex;
  flex-direction: column;
  align-items: center;
  gap: 1.5rem;
}
.cta-hero-badge {
  display: none !important;
  display: inline-flex;
  align-items: center;
  gap: 0.5rem;
  background: rgba(255, 255, 255, 0.08);
  border: 1px solid rgba(255, 255, 255, 0.12);
  color: rgba(255, 255, 255, 0.8);
  font-size: 0.82rem;
  font-weight: 500;
  padding: 0.4rem 1rem;
  border-radius: 50px;
  backdrop-filter: blur(6px);
}
.cta-hero-badge i {
  color: #3b5bdb;
  font-size: 0.7rem;
}
.cta-hero-title {
  font-size: 2.5rem;
  font-weight: var(--logiweb-block-title-font-weight-strong);
  color: #fff;
  line-height: 1.15;
  margin: 0;
  letter-spacing: -0.02em;
}
.cta-hero-highlight {
  color: #4f7aff;
}
.cta-hero-description {
  font-size: clamp(0.95rem, 1.8vw, 1.05rem);
  color: rgba(255, 255, 255, 0.6);
  line-height: 1.65;
  margin: 0;
  max-width: 540px;
}
.cta-hero-actions {
  display: flex;
  align-items: center;
  justify-content: center;
  gap: 0.85rem;
  flex-wrap: wrap;
}
.cta-hero-btn-primary {
  display: inline-flex;
  align-items: center;
  gap: 0.5rem;
  background: #3b5bdb;
  color: #fff;
  font-size: 0.95rem;
  font-weight: 600;
  padding: 0.75rem 1.75rem;
  border-radius: 50px;
  text-decoration: none;
  transition: background 0.25s ease, transform 0.2s ease;
}
.cta-hero-btn-primary i {
  font-size: 0.8rem;
}
.cta-hero-btn-primary:hover {
  background: #2f4ac4;
  color: #fff;
  transform: translateY(-2px);
}
.cta-hero-btn-secondary {
  display: inline-flex;
  align-items: center;
  background: rgba(255, 255, 255, 0.95);
  color: #1a1a2e;
  font-size: 0.95rem;
  font-weight: 600;
  padding: 0.75rem 1.75rem;
  border-radius: 50px;
  text-decoration: none;
  transition: background 0.25s ease, transform 0.2s ease;
}
.cta-hero-btn-secondary:hover {
  background: #fff;
  color: #1a1a2e;
  transform: translateY(-2px);
}
.cta-hero-divider {
  width: 1920px;
  height: 1px;
  background: rgba(255, 255, 255, 0.1);
}
.cta-hero-stats {
  display: flex;
  align-items: center;
  justify-content: center;
  gap: clamp(4rem, 10vw, 8rem);
}
.cta-hero-stat {
  display: flex;
  flex-direction: column;
  align-items: center;
  gap: 0.25rem;
}
.cta-hero-stat-value {
  font-size: clamp(1.3rem, 3vw, 1.6rem);
  font-weight: 700;
  color: #fff;
  line-height: 1;
}
.cta-hero-stat-label {
  font-size: 0.78rem;
  color: rgba(255, 255, 255, 0.5);
  font-weight: 400;
}
.cta-hero-editor .cta-hero {
  border-radius: 16px;
}
@media (max-width: 600px) {
  .cta-hero-stats {
    gap: 1.5rem;
  }
  .cta-hero-actions {
    flex-direction: column;
    width: 100%;
  }
  .cta-hero-actions a {
    width: 100%;
    justify-content: center;
  }
}
/* ============================================================================
   Story Hero Banner (block-23)
   ============================================================================ */
.story-hero {
  width: 100%;
  position: relative;
  overflow: hidden;
  box-sizing: border-box;
  padding-top: 6rem;
  padding-bottom: 6rem;
  background: radial-gradient(circle at 70% 50%, rgba(66, 95, 255, 0.38) 0%, rgba(66, 95, 255, 0) 45%), var(--logiweb-block-dark-background);
}
.story-hero-inner {
  max-width: 840px;
  margin: 0 auto;
  text-align: center;
}
.story-hero-subtitle {
  margin: 0 0 0.8rem;
  color: var(--logiweb-block-subtitle-color-inverse);
  font-family: var(--logiweb-block-subtitle-font-family);
  font-size: var(--logiweb-block-subtitle-size-sm);
  font-weight: var(--logiweb-block-subtitle-font-weight);
  letter-spacing: 0.08em;
  text-transform: uppercase;
}
.story-hero-title {
  margin: 0;
  color: var(--logiweb-block-title-color-inverse);
  font-family: var(--logiweb-block-title-font-family);
  font-size: var(--logiweb-block-title-size-hero);
  font-weight: var(--logiweb-block-title-font-weight-strong);
  line-height: 1.12;
}
.story-hero-highlight {
  color: var(--logiweb-block-title-highlight-color-inverse);
}
.story-hero-description {
  margin: 1.1rem auto 0;
  max-width: 760px;
  color: var(--logiweb-block-text-color-inverse);
  font-family: var(--logiweb-block-text-font-family);
  font-size: var(--logiweb-block-text-size-lg);
  font-weight: var(--logiweb-block-text-font-weight);
  line-height: 1.45;
}
.story-hero-editor .story-hero {
  border-radius: 14px;
}
@media (max-width: 768px) {
  .story-hero {
    padding: clamp(44px, 10vw, 64px) clamp(14px, 6vw, 22px);
    background: radial-gradient(circle at 70% 40%, rgba(66, 95, 255, 0.35) 0%, rgba(66, 95, 255, 0) 50%), var(--logiweb-block-dark-background-mobile);
  }
  .story-hero-subtitle {
    font-size: var(--logiweb-block-subtitle-size-sm);
  }
  .story-hero-title {
    font-size: var(--logiweb-block-title-size-section);
  }
  .story-hero-description {
    margin-top: 0.85rem;
    font-size: var(--logiweb-block-text-size-sm);
    line-height: 1.5;
  }
}
/* ============================================================================
   Why Families Choose Us (block-24)
   ============================================================================ */
.family-trust {
  width: 100%;
  padding: clamp(52px, 6vw, 90px) 0;
}
.family-trust-inner {
  max-width: 1140px;
  margin: 0 auto;
  padding: 0 clamp(16px, 4vw, 32px);
  display: grid;
  grid-template-columns: minmax(0, 1.05fr) minmax(0, 0.95fr);
  gap: clamp(24px, 3.4vw, 44px);
  align-items: center;
}
.family-trust-image-wrap {
  position: relative;
  border-radius: 16px;
  overflow: visible;
}
.family-trust-image {
  width: 100%;
  aspect-ratio: 16/11.2;
  -o-object-fit: cover;
     object-fit: cover;
  border-radius: 16px;
  display: block;
}
.family-trust-image-placeholder {
  width: 100%;
  aspect-ratio: 16/11.2;
  border-radius: 16px;
  display: flex;
  align-items: center;
  justify-content: center;
  background: var(--logiweb-block-placeholder-background);
  color: var(--logiweb-block-placeholder-text);
  font-family: var(--logiweb-block-text-font-family);
  font-weight: var(--logiweb-block-subtitle-font-weight);
}
.family-trust-testimonial {
  position: absolute;
  left: 16px;
  bottom: 14px;
  max-width: 290px;
  background: var(--logiweb-block-card-background);
  border-radius: 16px;
  border: 1px solid var(--logiweb-block-surface-border);
  box-shadow: 0 14px 24px rgba(18, 35, 64, 0.12);
  padding: 12px 14px;
  display: flex;
  gap: 10px;
  align-items: flex-start;
}
.family-trust-testimonial-icon {
  width: 24px;
  height: 24px;
  flex-shrink: 0;
  border-radius: 50%;
  display: inline-flex;
  align-items: center;
  justify-content: center;
  color: var(--logiweb-block-accent-green);
  background: var(--logiweb-block-accent-green-soft);
  font-size: var(--logiweb-block-text-size-sm);
}
.family-trust-testimonial-quote {
  margin: 0;
  color: var(--logiweb-block-title-color);
  font-family: var(--logiweb-block-text-font-family);
  font-size: var(--logiweb-block-text-size-sm);
  font-weight: var(--logiweb-block-subtitle-font-weight);
  line-height: 1.32;
  font-style: italic;
}
.family-trust-testimonial-author {
  margin: 0 0 4px;
  color: var(--logiweb-block-title-color);
  font-family: var(--logiweb-block-title-font-family);
  font-size: var(--logiweb-block-text-size-md);
  font-weight: var(--logiweb-block-title-font-weight-strong);
}
.family-trust-subtitle {
  margin: 0 0 0.65rem;
  color: var(--logiweb-block-subtitle-color);
  font-family: var(--logiweb-block-subtitle-font-family);
  font-size: var(--logiweb-block-subtitle-size);
  font-weight: var(--logiweb-block-subtitle-font-weight);
  text-transform: uppercase;
  letter-spacing: 0.12em;
}
.family-trust-title {
  margin: 0;
  color: var(--logiweb-block-title-color);
  font-family: var(--logiweb-block-title-font-family);
  font-size: var(--logiweb-block-title-size-section);
  font-weight: var(--logiweb-block-title-font-weight-strong);
  line-height: 1.14;
  letter-spacing: -0.01em;
}
.family-trust-title-highlight {
  color: var(--logiweb-block-title-highlight-color);
}
.family-trust-description {
  margin: 0.95rem 0 0;
  color: var(--logiweb-block-text-color);
  font-family: var(--logiweb-block-text-font-family);
  font-size: var(--logiweb-block-text-size-sm);
  font-weight: var(--logiweb-block-text-font-weight);
  line-height: 1.56;
}
.family-trust-description-second {
  margin-top: 0.7rem;
}
.family-trust-badges {
  margin-top: 1rem;
  display: flex;
  flex-wrap: wrap;
  gap: 0.62rem;
}
.family-trust-badge {
  display: inline-flex;
  align-items: center;
  gap: 0.42rem;
  border-radius: 8px;
  padding: 0.38rem 0.78rem;
  background: color-mix(in srgb, currentColor 11%, #ffffff 89%);
  font-family: var(--logiweb-block-text-font-family);
  font-size: var(--logiweb-block-text-size-sm);
  font-weight: var(--logiweb-block-subtitle-font-weight);
}
.family-trust-badge i {
  font-size: 0.72rem;
}
.family-trust-cards {
  margin-top: 1.05rem;
  display: grid;
  grid-template-columns: repeat(2, minmax(0, 1fr));
  gap: 0.95rem;
}
.family-trust-card {
  background: color-mix(in srgb, var(--logiweb-block-card-background) 35%, var(--logiweb-block-muted-background) 65%);
  border-radius: 14px;
  padding: 14px 16px 16px;
}
.family-trust-card-icon {
  width: 22px;
  height: 22px;
  border-radius: 0;
  display: inline-flex;
  align-items: center;
  justify-content: center;
  color: var(--logiweb-block-title-highlight-color);
  background: transparent;
  font-size: var(--logiweb-block-text-size-sm);
}
.family-trust-card-title {
  margin: 8px 0 4px;
  color: var(--logiweb-block-title-color);
  font-family: var(--logiweb-block-title-font-family);
  font-size: var(--logiweb-block-text-size-lg);
  font-weight: var(--logiweb-block-title-font-weight-strong);
  line-height: 1.2;
}
.family-trust-card-description {
  margin: 0;
  color: var(--logiweb-block-text-color);
  font-family: var(--logiweb-block-text-font-family);
  font-size: var(--logiweb-block-text-size-sm);
  font-weight: var(--logiweb-block-text-font-weight);
  line-height: 1.45;
}
.family-trust-editor .family-trust {
  padding-top: 18px;
}
@media (max-width: 1024px) {
  .family-trust-inner {
    grid-template-columns: 1fr;
    gap: 30px;
  }
  .family-trust-left {
    order: 1;
  }
  .family-trust-right {
    order: 2;
  }
  .family-trust-testimonial {
    left: 12px;
    bottom: 12px;
  }
}
@media (max-width: 640px) {
  .family-trust {
    padding: 36px 0;
  }
  .family-trust-testimonial {
    position: static;
    margin-top: 10px;
    max-width: 100%;
  }
  .family-trust-title {
    font-size: var(--logiweb-block-title-size-section);
  }
  .family-trust-description {
    font-size: var(--logiweb-block-text-size-sm);
  }
  .family-trust-badges {
    gap: 0.48rem;
  }
  .family-trust-badge {
    font-size: var(--logiweb-block-text-size-sm);
  }
  .family-trust-cards {
    grid-template-columns: 1fr;
  }
  .family-trust-card-title {
    font-size: var(--logiweb-block-title-size-small);
  }
}
/* ============================================================================
   Journey Timeline (block-25)
   ============================================================================ */
.journey-timeline {
  width: 100%;
  padding: clamp(44px, 6vw, 88px) 0;
}
.journey-timeline-header {
  max-width: 880px;
  margin: 0 auto clamp(28px, 5vw, 46px);
  text-align: center;
  padding: 0 clamp(16px, 5vw, 28px);
}
.journey-timeline-subtitle {
  margin: 0 0 0.7rem;
  color: var(--logiweb-block-subtitle-color);
  font-family: var(--logiweb-block-subtitle-font-family);
  font-size: var(--logiweb-block-subtitle-size-sm);
  font-weight: var(--logiweb-block-subtitle-font-weight);
  letter-spacing: 0.08em;
  text-transform: uppercase;
}
.journey-timeline-title {
  margin: 0;
  color: var(--logiweb-block-title-color);
  font-family: var(--logiweb-block-title-font-family);
  font-size: var(--logiweb-block-title-size-section);
  font-weight: var(--logiweb-block-title-font-weight-strong);
  line-height: 1.16;
}
.journey-timeline-highlight {
  color: var(--logiweb-block-title-highlight-color);
}
.journey-timeline-description {
  margin: 0.9rem auto 0;
  color: var(--logiweb-block-text-color);
  font-family: var(--logiweb-block-text-font-family);
  font-size: var(--logiweb-block-text-size-md);
  font-weight: var(--logiweb-block-text-font-weight);
  max-width: 620px;
}
.journey-timeline-track {
  position: relative;
  max-width: 1180px;
  margin: 0 auto;
  padding: 0 clamp(16px, 5vw, 40px);
}
.journey-line {
  position: absolute;
  left: 50%;
  top: 0;
  bottom: 0;
  width: 2px;
  transform: translateX(-50%);
  background: var(--logiweb-block-timeline-line);
}
.journey-line-fill {
  width: 100%;
  height: 0%;
  background: linear-gradient(180deg, var(--logiweb-block-title-highlight-color) 0%, var(--logiweb-block-subtitle-color) 100%);
  transition: height 0.15s linear;
}
.journey-item {
  position: relative;
  display: grid;
  grid-template-columns: minmax(0, 1fr) 90px minmax(0, 1fr);
  align-items: start;
  margin-bottom: clamp(20px, 3vw, 30px);
}
.journey-item:last-child {
  margin-bottom: 0;
}
.journey-item-card {
  background: var(--logiweb-block-card-background);
  border-radius: 18px;
  box-shadow: var(--logiweb-block-surface-shadow);
  border: 1px solid var(--logiweb-block-surface-border);
  opacity: 0;
  transform: translateY(28px);
  transition: opacity 0.6s ease, transform 0.6s ease;
}
.journey-item.is-visible .journey-item-card {
  opacity: 1;
  transform: translateY(0);
}
.journey-item.is-left .journey-item-card {
  grid-column: 1;
}
.journey-item.is-right .journey-item-card {
  grid-column: 3;
}
.journey-item-content {
  padding: 18px;
}
.journey-item-tag {
  display: inline-flex;
  align-items: center;
  padding: 0.25rem 0.55rem;
  border-radius: 50px;
  background: var(--logiweb-block-accent-blue-soft);
  color: var(--logiweb-block-subtitle-color);
  font-family: var(--logiweb-block-subtitle-font-family);
  font-size: var(--logiweb-block-text-size-sm);
  font-weight: var(--logiweb-block-subtitle-font-weight);
}
.journey-item-title {
  margin: 0.55rem 0 0.4rem;
  color: var(--logiweb-block-title-color);
  font-family: var(--logiweb-block-title-font-family);
  font-size: var(--logiweb-block-text-size-lg);
  font-weight: var(--logiweb-block-title-font-weight-strong);
  line-height: 1.25;
}
.journey-item-description {
  margin: 0;
  color: var(--logiweb-block-text-color);
  font-family: var(--logiweb-block-text-font-family);
  font-size: var(--logiweb-block-text-size-md);
  font-weight: var(--logiweb-block-text-font-weight);
  line-height: 1.55;
}
.journey-item-node {
  grid-column: 2;
  justify-self: center;
  align-self: start;
  width: 78px;
  height: 78px;
  border-radius: 50%;
  background: var(--logiweb-btn-primary-bg);
  color: var(--logiweb-btn-primary-text);
  font-family: var(--logiweb-block-title-font-family);
  font-size: var(--logiweb-block-title-size-small);
  font-weight: var(--logiweb-block-title-font-weight-strong);
  display: inline-flex;
  align-items: center;
  justify-content: center;
  box-shadow: 0 10px 20px color-mix(in srgb, var(--logiweb-btn-primary-bg) 30%, transparent);
  position: relative;
  z-index: 2;
  margin-top: 0;
}
.journey-item-node::after {
  content: "";
  position: absolute;
  width: 24px;
  height: 2px;
  background: var(--logiweb-btn-primary-bg);
}
.journey-item.is-left .journey-item-node::after {
  left: -22px;
}
.journey-item.is-right .journey-item-node::after {
  right: -22px;
}
.journey-timeline-editor .journey-item-card {
  opacity: 1;
  transform: none;
}
@media (min-width: 901px) {
  .journey-item-node {
    position: absolute;
    grid-column: 1/-1;
    justify-self: unset;
    left: 50%;
    top: 50%;
    transform: translate(-50%, -50%);
    margin-top: 0;
  }
}
@media (max-width: 900px) {
  .journey-line {
    left: 46px;
    transform: none;
  }
  .journey-item {
    grid-template-columns: 92px minmax(0, 1fr);
    gap: 0.7rem;
    align-items: center;
  }
  .journey-item.is-left .journey-item-card,
  .journey-item.is-right .journey-item-card {
    grid-column: 2;
  }
  .journey-item-node {
    grid-column: 1;
    width: 62px;
    height: 62px;
    font-size: 1rem;
    position: relative;
    top: auto;
    left: auto;
    transform: none;
    margin-top: 0;
  }
  .journey-item-node::after {
    width: 16px;
    right: -16px;
    left: auto;
  }
}
@media (max-width: 640px) {
  .journey-timeline {
    padding: 36px 0;
  }
  .journey-item-content {
    padding: 12px 14px 14px;
  }
  .journey-item-title {
    font-size: var(--logiweb-block-title-size-small);
  }
  .journey-item-description {
    font-size: var(--logiweb-block-text-size-sm);
  }
}
/* ============================================================================
   Project CTA Banner (block-26)
   ============================================================================ */
.project-cta {
  width: 100%;
  padding: clamp(54px, 7vw, 92px) clamp(16px, 5vw, 34px);
  background: radial-gradient(ellipse 60% 60% at 85% 95%, rgba(47, 82, 224, 0.72) 0%, rgba(47, 82, 224, 0) 70%), radial-gradient(ellipse 55% 80% at 0% 20%, rgba(255, 255, 255, 0.06) 0%, rgba(255, 255, 255, 0) 75%), linear-gradient(98deg, #0d2049 0%, #0d1f55 45%, #1a33b8 100%);
  box-sizing: border-box;
}
.project-cta-inner {
  max-width: 760px;
  margin: 0 auto;
  text-align: center;
}
.project-cta-title {
  margin: 0;
  color: var(--logiweb-block-title-color-inverse);
  font-family: var(--logiweb-block-title-font-family);
  font-size: var(--logiweb-block-title-size-section);
  font-weight: var(--logiweb-block-title-font-weight-strong);
  line-height: 1.16;
  letter-spacing: -0.01em;
}
.project-cta-title-highlight {
  color: var(--logiweb-block-title-highlight-color-inverse);
}
.project-cta-description {
  margin: 0.85rem auto 0;
  max-width: 640px;
  color: var(--logiweb-block-text-color-inverse);
  font-family: var(--logiweb-block-text-font-family);
  font-size: var(--logiweb-block-text-size-md);
  font-weight: var(--logiweb-block-text-font-weight);
  line-height: 1.5;
}
.project-cta-actions {
  margin-top: 1.55rem;
  display: flex;
  gap: 0.8rem;
  align-items: center;
  justify-content: center;
  flex-wrap: wrap;
}
.project-cta-btn {
  display: inline-flex;
  align-items: center;
  justify-content: center;
  text-decoration: none;
  border-radius: 999px;
  min-height: 48px;
  padding: 0.7rem 1.5rem;
  transition: transform 0.2s ease, box-shadow 0.2s ease, background 0.2s ease;
  font-family: var(--logiweb-block-text-font-family);
  font-size: var(--logiweb-block-text-size-sm);
  font-weight: var(--logiweb-block-subtitle-font-weight);
}
.project-cta-btn-primary {
  background: var(--logiweb-block-card-background);
  color: var(--logiweb-block-title-color);
  gap: 0.6rem;
}
.project-cta-btn-primary i {
  font-size: 0.8rem;
}
.project-cta-btn-primary:hover {
  background: var(--logiweb-block-muted-background);
  color: var(--logiweb-block-title-color);
  transform: translateY(-2px);
  box-shadow: 0 12px 22px rgba(15, 22, 60, 0.28);
}
.project-cta-btn-secondary {
  background: none;
  border: 1px solid rgba(255, 255, 255, 0.96);
  color: white;
  min-width: 170px;
}
.project-cta-btn-secondary:hover {
  background: var(--logiweb-block-card-background);
  color: var(--logiweb-block-title-color);
  transform: translateY(-2px);
  box-shadow: 0 12px 22px rgba(15, 22, 60, 0.22);
}
.project-cta-editor .project-cta {
  border-radius: 16px;
}
@media (max-width: 640px) {
  .project-cta {
    padding: clamp(44px, 10vw, 62px) 14px;
  }
  .project-cta-title {
    font-size: var(--logiweb-block-title-size-section);
  }
  .project-cta-description {
    font-size: var(--logiweb-block-text-size-sm);
  }
  .project-cta-actions {
    flex-direction: column;
    width: 100%;
  }
  .project-cta-btn {
    width: 100%;
    max-width: 320px;
  }
}
/* ============================================================================
   Team Members Showcase (block-27)
   ============================================================================ */
.team-members-block {
  width: 100%;
  padding: clamp(42px, 6vw, 76px) clamp(16px, 4vw, 32px);
  box-sizing: border-box;
}
.team-members-filters {
  max-width: 1200px;
  margin: 0 auto clamp(24px, 3vw, 32px);
  display: flex;
  align-items: center;
  justify-content: flex-start;
  flex-wrap: wrap;
  gap: 0.45rem;
}
.team-filter-pill {
  border: 1px solid #edf0f7;
  background: #ffffff;
  color: #6a7082;
  border-radius: 999px;
  min-height: 36px;
  padding: 0.4rem 0.9rem;
  font-size: 0.8rem;
  font-weight: 600;
  cursor: pointer;
  transition: all 0.2s ease;
}
.team-filter-pill:hover {
  border-color: #d8def4;
  color: #2f52e0;
}
.team-filter-pill.is-active {
  background: #2f52e0;
  border-color: #2f52e0;
  color: #ffffff;
  box-shadow: 0 8px 16px rgba(47, 82, 224, 0.22);
}
.team-members-grid {
  max-width: 1200px;
  margin: 0 auto;
  display: grid;
  grid-template-columns: repeat(auto-fit, minmax(250px, 1fr));
  gap: clamp(12px, 2vw, 20px);
}
.team-member-card {
  display: flex;
  flex-direction: column;
  overflow: hidden;
}
.team-member-media {
  position: relative;
  aspect-ratio: 4/4.2;
  border-radius: 18px;
  background: #eef2fb;
}
.team-member-image {
  border-radius: 18px !important;
}
.team-member-hover-action {
  position: absolute;
  inset: 0;
  background: linear-gradient(180deg, rgba(10, 16, 35, 0.06) 10%, rgba(10, 16, 35, 0.52) 100%);
  display: flex;
  align-items: center;
  justify-content: center;
  opacity: 0;
  visibility: hidden;
  transition: opacity 0.22s ease, visibility 0.22s ease;
}
.team-member-card:hover .team-member-hover-action,
.team-member-card:focus-within .team-member-hover-action {
  opacity: 1;
  visibility: visible;
}
.team-member-view-profile-btn {
  border: 0;
  border-radius: 999px;
  min-height: 42px;
  padding: 0.65rem 1.15rem;
  background: #ffffff;
  color: #20263a;
  font-size: 0.84rem;
  font-weight: 700;
  letter-spacing: 0.01em;
  cursor: pointer;
  transition: transform 0.2s ease, box-shadow 0.2s ease;
}
.team-member-view-profile-btn:hover {
  transform: translateY(-2px);
  box-shadow: 0 10px 18px rgba(11, 21, 49, 0.28);
}
.team-member-image {
  width: 100%;
  height: 100%;
  -o-object-fit: cover;
     object-fit: cover;
  border-radius: 0;
  display: block;
}
.team-member-image-placeholder {
  display: flex;
  align-items: center;
  justify-content: center;
  color: #6b7391;
  font-size: 0.9rem;
  font-weight: 600;
}
.team-member-department {
  position: absolute;
  top: 10px;
  left: 10px;
  display: inline-flex;
  align-items: center;
  border-radius: 999px;
  background: rgba(255, 255, 255, 0.94);
  color: #4d5264;
  font-size: 0.7rem;
  font-weight: 700;
  padding: 0.22rem 0.55rem;
}
.team-member-content {
  padding: 12px 14px 14px;
  text-align: center;
}
.team-member-name {
  margin: 0;
  color: #20263a;
  font-size: 1.05rem;
  line-height: 1.25;
  font-weight: 700;
}
.team-member-role {
  margin: 0.35rem 0 0;
  color: #2f52e0;
  font-size: 0.84rem;
  font-weight: 600;
}
.team-member-experience {
  margin: 0.6rem 0 0;
  color: #626a80;
  font-size: 0.84rem;
  display: flex;
  align-items: center;
  justify-content: center;
  gap: 0.4rem;
}
.team-member-experience i {
  font-size: 0.74rem;
  color: #7e879f;
}
.team-member-controls-preview {
  margin: 0.55rem 0;
}
.team-member-controls-preview-image {
  display: block;
  width: 100%;
  max-height: 140px;
  -o-object-fit: cover;
     object-fit: cover;
  border-radius: 8px;
}
.team-profile-modal {
  position: fixed;
  inset: 0;
  z-index: 10010;
  background: rgba(8, 18, 45, 0.62);
  display: flex;
  align-items: center;
  justify-content: center;
  padding: 16px;
}
.team-profile-modal-dialog {
  position: relative;
  width: min(100%, 780px);
  max-height: 112vh;
  background: #ffffff;
  border-radius: 18px;
  overflow: hidden;
  box-shadow: 0 30px 60px rgba(12, 19, 42, 0.36);
  display: grid;
  grid-template-columns: minmax(300px, 48%) minmax(0, 52%);
}
.team-profile-modal-close {
  position: absolute;
  top: 10px;
  right: 10px;
  width: 34px;
  height: 34px;
  border: 0;
  border-radius: 50%;
  background: #f2f5ff;
  color: #344061;
  font-size: 1rem;
  cursor: pointer;
  z-index: 2;
}
.team-profile-modal-image-wrap {
  position: relative;
  min-height: 420px;
  background: #dfe5f8;
}
.team-profile-modal-image {
  width: 100%;
  height: 100%;
  -o-object-fit: cover;
     object-fit: cover;
  border-radius: 0;
}
.team-profile-modal-exp {
  position: absolute;
  left: 14px;
  bottom: 14px;
  background: rgba(255, 255, 255, 0.92);
  color: #2a3147;
  border-radius: 999px;
  font-size: 0.75rem;
  font-weight: 700;
  padding: 0.35rem 0.68rem;
}
.team-profile-modal-content {
  padding: 18px 22px 20px;
  overflow: auto;
}
.team-profile-modal-department {
  display: inline-flex;
  border-radius: 999px;
  background: #eef2ff;
  color: #3d52be;
  font-size: 0.72rem;
  font-weight: 700;
  padding: 0.24rem 0.62rem;
}
.team-profile-modal-name {
  margin: 0.65rem 0 0;
  color: #1f2640;
  font-size: 1.9rem;
  line-height: 1.1;
  font-weight: 700;
}
.team-profile-modal-role {
  margin: 0.35rem 0 0;
  color: #3b56d4;
  font-size: 0.95rem;
  font-weight: 600;
}
.team-profile-modal-label {
  margin: 1rem 0 0.45rem;
  color: #8a92a8;
  font-size: 0.67rem;
  font-weight: 700;
  letter-spacing: 0.09em;
  text-transform: uppercase;
}
.team-profile-modal-about {
  margin: 0;
  color: #5b647c;
  font-size: 0.92rem;
  line-height: 1.62;
}
.team-profile-modal-tags {
  display: flex;
  flex-wrap: wrap;
  gap: 0.45rem;
}
.team-profile-modal-tag {
  border-radius: 6px;
  background: #f2f4f9;
  color: #4d556b;
  font-size: 0.73rem;
  font-weight: 600;
  padding: 0.3rem 0.52rem;
}
.team-profile-modal-list {
  margin: 0;
  padding: 0;
  list-style: none;
  display: flex;
  flex-wrap: wrap;
  gap: 0.45rem;
}
.team-profile-modal-list li {
  display: inline-flex;
  align-items: center;
  gap: 0.4rem;
  color: #3a7d48;
  font-size: 0.75rem;
  font-weight: 600;
  border: 1.5px solid #4d7e56;
  border-radius: 999px;
  padding: 0.28rem 0.7rem;
  background: transparent;
}
.team-profile-modal-contact {
  margin: 0;
  padding: 0;
  list-style: none;
  display: flex;
  flex-direction: column;
  gap: 0.45rem;
}
.team-profile-modal-contact li {
  display: flex;
  align-items: center;
  gap: 0.55rem;
  color: #5f677c;
  font-size: 0.84rem;
}
@media (max-width: 860px) {
  .team-profile-modal-dialog {
    grid-template-columns: 1fr;
    max-height: 95vh;
  }
  .team-profile-modal-image-wrap {
    min-height: 280px;
  }
  .team-profile-modal-name {
    font-size: 1.45rem;
  }
}
@media (max-width: 1080px) {
  .team-members-grid {
    grid-template-columns: repeat(2, minmax(0, 1fr));
  }
}
@media (max-width: 640px) {
  .team-members-block {
    padding: 34px 14px;
  }
  .team-members-grid {
    grid-template-columns: 1fr;
  }
  .team-filter-pill {
    font-size: 0.76rem;
    padding: 0.38rem 0.75rem;
  }
}
/* ============================================================================
   Team Stats + Join CTA (block-28)
   ============================================================================ */
.team-join-cta-block {
  width: 100%;
}
.team-join-stats-row {
  width: 100%;
  background: rgb(15, 23, 42);
  display: grid;
  grid-template-columns: repeat(4, minmax(0, 1fr));
  gap: clamp(12px, 2vw, 24px);
  align-items: center;
  justify-items: center;
  padding: clamp(28px, 3.7vw, 44px) clamp(16px, 4.5vw, 60px);
  padding-left: 20%;
  padding-right: 20%;
  border-top: 1px solid rgba(255, 255, 255, 0.18);
}
.team-join-stat {
  text-align: center;
}
.team-join-stat-value {
  margin: 0;
  color: var(--logiweb-block-title-color-inverse);
  font-family: var(--logiweb-block-title-font-family);
  font-size: var(--logiweb-block-title-size-section);
  line-height: 1;
  font-weight: var(--logiweb-block-title-font-weight-strong);
  letter-spacing: -0.01em;
  font-variant-numeric: tabular-nums;
}
.team-join-stat-label {
  margin: 0.55rem 0 0;
  color: var(--logiweb-block-text-color-inverse);
  font-family: var(--logiweb-block-text-font-family);
  font-size: var(--logiweb-block-subtitle-size-sm);
  font-weight: var(--logiweb-block-subtitle-font-weight);
}
.team-join-cta-panel {
  width: 100%;
  background: rgb(30, 58, 138);
  text-align: center;
  padding: clamp(52px, 6vw, 90px) clamp(16px, 4.5vw, 44px) clamp(56px, 7vw, 100px);
  border-top: 2px solid rgba(0, 0, 0, 0.14);
}
.team-join-cta-title {
  margin: 0;
  color: var(--logiweb-block-title-color-inverse);
  font-family: var(--logiweb-block-title-font-family);
  font-size: var(--logiweb-block-title-size-section);
  font-weight: var(--logiweb-block-title-font-weight-strong);
  line-height: 1.12;
}
.team-join-cta-description {
  margin: 0.95rem auto 0;
  max-width: 860px;
  color: var(--logiweb-block-text-color-inverse);
  font-family: var(--logiweb-block-text-font-family);
  font-size: var(--logiweb-block-text-size-lg);
  font-weight: var(--logiweb-block-text-font-weight);
  line-height: 1.55;
}
.team-join-cta-button {
  margin-top: 1.5rem;
  display: inline-flex;
  align-items: center;
  justify-content: center;
  text-decoration: none;
  border-radius: 999px;
  min-height: 52px;
  padding: 0.72rem 1.75rem;
  border: 1px solid rgba(255, 255, 255, 0.5);
  background: var(--logiweb-block-card-background);
  color: var(--logiweb-block-title-color);
  font-family: var(--logiweb-block-text-font-family);
  font-size: var(--logiweb-block-text-size-sm);
  font-weight: var(--logiweb-block-subtitle-font-weight);
  transition: transform 0.2s ease, box-shadow 0.2s ease;
}
.team-join-cta-button:hover {
  color: var(--logiweb-block-title-color);
  transform: translateY(-2px);
  box-shadow: 0 12px 22px rgba(15, 26, 68, 0.28);
}
.team-join-cta-editor .team-join-cta-block {
  border-radius: 12px;
  overflow: hidden;
}
@media (max-width: 900px) {
  .team-join-stats-row {
    grid-template-columns: repeat(2, minmax(0, 1fr));
    row-gap: 1.3rem;
  }
}
@media (max-width: 600px) {
  .team-join-stats-row {
    grid-template-columns: 1fr;
  }
  .team-join-cta-title {
    font-size: var(--logiweb-block-title-size-section);
  }
  .team-join-cta-description {
    font-size: var(--logiweb-block-text-size-sm);
  }
  .team-join-cta-button {
    width: 100%;
    max-width: 320px;
  }
}
/* ============================================================================
   Join Team Career Panel (block-29)
   ============================================================================ */
.career-join-block {
  width: 100%;
  background: radial-gradient(ellipse 55% 80% at 78% 88%, rgba(63, 87, 255, 0.7) 0%, rgba(63, 87, 255, 0) 70%), linear-gradient(100deg, #12275a 0%, #10285f 52%, #1f33c3 100%);
  box-sizing: border-box;
  padding: clamp(34px, 5vw, 66px) clamp(16px, 4.8vw, 42px);
}
.career-join-inner {
  max-width: 980px;
  margin: 0 auto;
  display: grid;
  grid-template-columns: 1.02fr 0.98fr;
  gap: clamp(20px, 4vw, 44px);
  align-items: center;
}
.career-join-badge {
  margin: 0;
  color: var(--logiweb-block-subtitle-color-inverse);
  display: inline-flex;
  gap: 0.45rem;
  align-items: center;
  font-family: var(--logiweb-block-subtitle-font-family);
  font-size: var(--logiweb-block-subtitle-size-sm);
  font-weight: var(--logiweb-block-subtitle-font-weight);
  letter-spacing: 0.06em;
  text-transform: uppercase;
}
.career-join-badge i {
  font-size: 0.72rem;
}
.career-join-title {
  margin: 0.75rem 0 0;
  color: var(--logiweb-block-title-color-inverse);
  font-family: var(--logiweb-block-title-font-family);
  font-size: var(--logiweb-block-title-size-hero);
  line-height: 1.05;
  font-weight: var(--logiweb-block-title-font-weight-strong);
  letter-spacing: -0.02em;
}
.career-join-title-highlight {
  color: var(--logiweb-block-title-highlight-color-inverse);
}
.career-join-description {
  margin: 0.9rem 0 0;
  max-width: 640px;
  color: var(--logiweb-block-text-color-inverse);
  font-family: var(--logiweb-block-text-font-family);
  font-size: var(--logiweb-block-text-size-md);
  font-weight: var(--logiweb-block-text-font-weight);
  line-height: 1.5;
}
.career-join-stats {
  margin-top: 1.5rem;
  display: grid;
  grid-template-columns: repeat(3, minmax(0, 1fr));
  gap: 0.85rem;
}
.career-join-stat {
  display: flex;
  align-items: center;
  gap: 0.58rem;
}
.career-join-stat-icon {
  width: 34px;
  height: 34px;
  border-radius: 10px;
  background: var(--logiweb-block-accent-blue-soft);
  color: var(--logiweb-block-title-highlight-color-inverse);
  display: inline-flex;
  align-items: center;
  justify-content: center;
  flex-shrink: 0;
}
.career-join-stat-icon i {
  font-size: 0.82rem;
}
.career-join-stat-value {
  margin: 0;
  color: var(--logiweb-block-title-color-inverse);
  font-family: var(--logiweb-block-title-font-family);
  font-size: var(--logiweb-block-title-size-card);
  line-height: 1;
  font-weight: var(--logiweb-block-title-font-weight-strong);
}
.career-join-stat-label {
  margin: 0.2rem 0 0;
  color: var(--logiweb-block-text-color-inverse);
  font-family: var(--logiweb-block-text-font-family);
  font-size: var(--logiweb-block-text-size-sm);
  font-weight: var(--logiweb-block-subtitle-font-weight);
}
.career-join-card {
  background: var(--logiweb-block-card-background);
  border-radius: 18px;
  border: 1px solid var(--logiweb-block-surface-border);
  box-shadow: var(--logiweb-block-surface-shadow);
  padding: clamp(16px, 2.2vw, 24px);
}
.career-join-card-title {
  margin: 0;
  color: var(--logiweb-block-title-color);
  display: flex;
  align-items: center;
  gap: 0.6rem;
  font-family: var(--logiweb-block-title-font-family);
  font-size: var(--logiweb-block-text-size-lg);
  font-weight: var(--logiweb-block-title-font-weight-strong);
}
.career-join-card-title i {
  width: 30px;
  height: 30px;
  border-radius: 9px;
  display: inline-flex;
  align-items: center;
  justify-content: center;
  background: var(--logiweb-block-muted-background);
  color: var(--logiweb-block-title-highlight-color);
  font-size: var(--logiweb-block-subtitle-size);
}
.career-join-card-description {
  margin: 0.85rem 0 0;
  color: var(--logiweb-block-text-color);
  font-family: var(--logiweb-block-text-font-family);
  font-size: var(--logiweb-block-text-size-sm);
  font-weight: var(--logiweb-block-text-font-weight);
  line-height: 1.5;
}
.career-join-input {
  width: 100%;
  margin-top: 0.95rem;
  border: 2px solid #9aafff;
  border-radius: 12px;
  min-height: 44px;
  padding: 0.65rem 0.88rem;
  color: #2f3650;
  font-size: 0.95rem;
  outline: none;
  box-sizing: border-box;
}
.career-join-input::-moz-placeholder {
  color: #8a94b1;
}
.career-join-input::placeholder {
  color: #8a94b1;
}
.career-join-button {
  margin-top: 0.72rem;
  width: 100%;
  min-height: 44px;
  display: inline-flex;
  align-items: center;
  justify-content: center;
  gap: 0.55rem;
  border-radius: 12px;
  text-decoration: none;
  color: var(--logiweb-btn-primary-text);
  font-family: var(--logiweb-block-text-font-family);
  font-size: var(--logiweb-block-text-size-sm);
  font-weight: var(--logiweb-block-subtitle-font-weight);
  background: var(--logiweb-btn-primary-bg);
  transition: transform 0.2s ease, box-shadow 0.2s ease;
}
.career-join-button:hover {
  color: var(--logiweb-btn-primary-text);
  background: var(--logiweb-btn-primary-bg-hover);
  transform: translateY(-1px);
  box-shadow: 0 12px 22px rgba(27, 53, 187, 0.32);
}
.career-join-privacy {
  margin: 0.72rem 0 0;
  color: #a3aac0;
  text-align: center;
  font-size: 0.77rem;
}
.career-join-cf7-preview {
  margin-top: 0.9rem;
  padding: 0.75rem;
  border: 1px dashed #b8c2e8;
  border-radius: 12px;
  background: #f7f9ff;
  color: #5e6785;
  font-size: 0.84rem;
}
.career-join-cf7-preview code {
  display: block;
  margin-top: 0.5rem;
  color: #3142a8;
  white-space: pre-wrap;
}
.career-join-cf7 {
  margin-top: 0.75rem;
}
.career-join-cf7 .wpcf7 {
  margin: 0;
}
.career-join-cf7 .wpcf7-form {
  display: flex;
  flex-direction: column;
  gap: 0.72rem;
}
.career-join-cf7 .wpcf7-form-control-wrap {
  display: block;
}
.career-join-cf7 input[type=email],
.career-join-cf7 input[type=text],
.career-join-cf7 input[type=tel] {
  width: 100%;
  border: 2px solid #9aafff;
  border-radius: 12px;
  min-height: 44px;
  padding: 0.65rem 0.88rem;
  color: #2f3650;
  font-size: 0.95rem;
  outline: none;
  box-sizing: border-box;
}
.career-join-cf7 input[type=submit],
.career-join-cf7 button[type=submit] {
  width: 100%;
  min-height: 44px;
  border: 0;
  border-radius: 12px;
  color: #ffffff;
  font-size: 0.93rem;
  font-weight: 700;
  background: linear-gradient(180deg, #2546ff 0%, #2240e8 100%);
  cursor: pointer;
}
.career-join-cf7 .wpcf7-spinner {
  margin: 0;
}
.career-join-cf7 .wpcf7-response-output {
  margin: 0.25rem 0 0;
  font-size: 0.82rem;
  border-radius: 10px;
}
.career-join-editor .career-join-block {
  border-radius: 12px;
}
@media (max-width: 980px) {
  .career-join-inner {
    grid-template-columns: 1fr;
  }
  .career-join-title {
    font-size: var(--logiweb-block-title-size-section);
  }
}
@media (max-width: 640px) {
  .career-join-stats {
    grid-template-columns: 1fr;
  }
  .career-join-card {
    padding: 14px;
  }
}
/* ============================================================================
   Why Join Benefits Grid (block-30)
   ============================================================================ */
.career-benefits-block {
  width: 100%;
  padding: clamp(48px, 6.5vw, 94px) clamp(16px, 5vw, 34px);
  box-sizing: border-box;
}
.career-benefits-inner {
  max-width: 1060px;
  margin: 0 auto;
}
.career-benefits-header {
  text-align: center;
  max-width: 700px;
  margin: 0 auto;
}
.career-benefits-badge {
  margin: 0;
  display: inline-flex;
  align-items: center;
  gap: 0.45rem;
  padding: 0.32rem 0.78rem;
  border-radius: 999px;
  background: var(--logiweb-block-accent-blue-soft);
  color: var(--logiweb-block-subtitle-color);
  font-family: var(--logiweb-block-subtitle-font-family);
  font-size: var(--logiweb-block-text-size-xs);
  font-weight: var(--logiweb-block-subtitle-font-weight);
  letter-spacing: 0.06em;
  text-transform: uppercase;
}
.career-benefits-badge i {
  font-size: 0.72rem;
}
.career-benefits-title {
  margin: 0.7rem 0 0;
  color: var(--logiweb-block-title-color);
  font-family: var(--logiweb-block-title-font-family);
  font-size: var(--logiweb-block-title-size-section);
  line-height: 1.12;
  font-weight: var(--logiweb-block-title-font-weight-strong);
}
.career-benefits-title-highlight {
  color: var(--logiweb-block-title-highlight-color);
}
.career-benefits-description {
  margin: 0.78rem auto 0;
  color: var(--logiweb-block-text-color);
  font-family: var(--logiweb-block-text-font-family);
  font-size: var(--logiweb-block-text-size-md);
  font-weight: var(--logiweb-block-text-font-weight);
  line-height: 1.55;
  max-width: 600px;
}
.career-benefits-grid {
  margin-top: clamp(26px, 3.2vw, 38px);
  display: grid;
  grid-template-columns: repeat(3, minmax(0, 1fr));
  gap: clamp(12px, 1.8vw, 18px);
}
.career-benefit-card {
  border-radius: 16px;
  padding: 16px 18px 18px;
  transition: transform 0.22s ease, box-shadow 0.22s ease;
}
.career-benefit-card:hover {
  transform: translateY(-2px);
  box-shadow: 0 12px 24px rgba(19, 30, 67, 0.14);
}
.career-benefit-icon {
  width: 44px;
  height: 44px;
  border-radius: 12px;
  display: inline-flex;
  align-items: center;
  justify-content: center;
  font-size: 1.18rem;
}
.career-benefit-title {
  margin: 1rem 0 0;
  color: var(--logiweb-block-title-color);
  font-family: var(--logiweb-block-title-font-family);
  font-size: var(--logiweb-block-title-size-small);
  font-weight: var(--logiweb-block-title-font-weight-strong);
  line-height: 1.2;
}
.career-benefit-description {
  margin: 0.6rem 0 0;
  color: var(--logiweb-block-text-color);
  font-family: var(--logiweb-block-text-font-family);
  font-size: var(--logiweb-block-text-size-sm);
  font-weight: var(--logiweb-block-text-font-weight);
  line-height: 1.5;
}
.career-benefits-cta {
  margin-top: clamp(26px, 3.2vw, 42px);
  text-align: center;
}
.career-benefits-cta-text {
  margin: 0;
  color: var(--logiweb-block-text-color);
  font-family: var(--logiweb-block-text-font-family);
  font-size: var(--logiweb-block-text-size-sm);
  font-weight: var(--logiweb-block-text-font-weight);
}
.career-benefits-cta-button {
  margin-top: 0.65rem;
  display: inline-flex;
  align-items: center;
  gap: 0.55rem;
  text-decoration: none;
  color: var(--logiweb-block-subtitle-color);
  font-family: var(--logiweb-block-text-font-family);
  font-size: var(--logiweb-block-text-size-sm);
  font-weight: var(--logiweb-block-subtitle-font-weight);
}
.career-benefits-cta-button:hover {
  color: var(--logiweb-block-title-highlight-color);
}
.career-benefits-editor .career-benefits-block {
  border-radius: 12px;
}
@media (max-width: 980px) {
  .career-benefits-grid {
    grid-template-columns: repeat(2, minmax(0, 1fr));
  }
}
@media (max-width: 640px) {
  .career-benefits-grid {
    grid-template-columns: 1fr;
  }
  .career-benefits-title {
    font-size: var(--logiweb-block-title-size-section);
  }
}
/* ============================================================================
   Open Positions Board (block-31)
   ============================================================================ */
.openings-board-block {
  width: 100%;
  padding: clamp(34px, 5.5vw, 72px) clamp(16px, 4.6vw, 34px);
  box-sizing: border-box;
}
.openings-board-inner {
  max-width: 1060px;
  margin: 0 auto;
}
.openings-board-header {
  display: flex;
  justify-content: space-between;
  gap: 1rem;
  align-items: flex-start;
}
.openings-board-subtitle {
  margin: 0;
  color: var(--logiweb-block-subtitle-color);
  font-family: var(--logiweb-block-subtitle-font-family);
  font-size: var(--logiweb-block-subtitle-size-sm);
  letter-spacing: 0.08em;
  font-weight: var(--logiweb-block-subtitle-font-weight);
  text-transform: uppercase;
}
.openings-board-title {
  margin: 0.6rem 0 0;
  color: var(--logiweb-block-title-color);
  font-family: var(--logiweb-block-title-font-family);
  font-size: var(--logiweb-block-title-size-section);
  line-height: 1.12;
  font-weight: var(--logiweb-block-title-font-weight-strong);
}
.openings-board-title-highlight {
  color: var(--logiweb-block-title-highlight-color);
}
.openings-board-count {
  margin: 0.45rem 0 0;
  color: var(--logiweb-block-text-color);
  font-family: var(--logiweb-block-text-font-family);
  font-size: var(--logiweb-block-text-size-sm);
  display: inline-flex;
  align-items: center;
  gap: 0.45rem;
}
.openings-board-count span {
  width: 8px;
  height: 8px;
  border-radius: 50%;
  background: #66c577;
}
.openings-board-filters {
  margin-top: 1.05rem;
  display: flex;
  flex-wrap: wrap;
  gap: 0.6rem;
}
.openings-filter-pill {
  border: 1px solid var(--logiweb-block-surface-border);
  background: var(--logiweb-block-muted-background);
  border-radius: 999px;
  min-height: 36px;
  color: var(--logiweb-block-text-color);
  font-family: var(--logiweb-block-text-font-family);
  font-size: var(--logiweb-block-text-size-sm);
  font-weight: var(--logiweb-block-subtitle-font-weight);
  padding: 0.4rem 0.78rem;
  display: inline-flex;
  align-items: center;
  gap: 0.45rem;
  cursor: pointer;
}
.openings-filter-pill span {
  display: inline-flex;
  min-width: 20px;
  height: 20px;
  border-radius: 999px;
  background: rgba(17, 26, 55, 0.09);
  align-items: center;
  justify-content: center;
  font-size: 0.72rem;
}
.openings-filter-pill.is-active {
  background: var(--logiweb-btn-primary-bg);
  border-color: var(--logiweb-btn-primary-bg);
  color: var(--logiweb-btn-primary-text);
}
.openings-filter-pill.is-active span {
  background: rgba(255, 255, 255, 0.2);
}
.openings-board-grid {
  margin-top: 1rem;
  display: grid;
  grid-template-columns: minmax(0, 1fr) 310px;
  gap: 1rem;
  align-items: start;
}
.openings-board-list {
  display: flex;
  flex-direction: column;
  gap: 0.7rem;
}
.opening-card {
  background: var(--logiweb-block-card-background);
  border: 1px solid var(--logiweb-block-surface-border);
  border-radius: 14px;
  box-shadow: 0 6px 18px rgba(13, 24, 56, 0.06);
  overflow: hidden;
}
.opening-card-head {
  width: 100%;
  border: 0;
  background: transparent;
  text-align: left;
  cursor: pointer;
  padding: 13px 14px 12px;
}
.opening-card-status {
  margin: 0;
  font-size: 0.74rem;
  font-weight: 700;
  display: inline-flex;
  align-items: center;
  gap: 0.45rem;
}
.opening-card-status span {
  color: #9da4b6;
  font-weight: 500;
}
.opening-card-status::before {
  content: "";
  width: 8px;
  height: 8px;
  border-radius: 50%;
}
.opening-card-status.is-active {
  color: #67b96f;
}
.opening-card-status.is-active::before {
  background: #67c578;
}
.opening-card-status.is-review {
  color: #d0a643;
}
.opening-card-status.is-review::before {
  background: #d8b24f;
}
.opening-card-status.is-closed {
  color: #c95757;
}
.opening-card-status.is-closed::before {
  background: #da5a5a;
}
.opening-card-title {
  margin: 0.6rem 0 0;
  color: var(--logiweb-block-title-color);
  font-family: var(--logiweb-block-title-font-family);
  font-size: var(--logiweb-block-title-size-small);
  font-weight: var(--logiweb-block-title-font-weight);
  line-height: 1.2;
}
.opening-card-meta {
  margin: 0.5rem 0 0;
  color: var(--logiweb-block-text-color);
  font-family: var(--logiweb-block-text-font-family);
  font-size: var(--logiweb-block-text-size-sm);
  display: flex;
  flex-wrap: wrap;
  gap: 0.65rem;
  align-items: center;
}
.opening-card-meta i {
  color: #9ca5ba;
  margin-right: 0.2rem;
}
.opening-card-details {
  border-top: 1px solid var(--logiweb-block-surface-border);
  padding: 12px 14px 14px;
}
.opening-card:not(.is-open) .opening-card-details {
  display: none;
}
.opening-card-summary {
  margin: 0;
  color: var(--logiweb-block-text-color);
  font-family: var(--logiweb-block-text-font-family);
  font-size: var(--logiweb-block-text-size-sm);
  font-weight: var(--logiweb-block-text-font-weight);
  line-height: 1.5;
}
.opening-card-columns {
  margin-top: 0.9rem;
  display: grid;
  grid-template-columns: repeat(2, minmax(0, 1fr));
  gap: 0.9rem;
}
.opening-card-columns h4 {
  margin: 0 0 0.4rem;
  color: #2b3550;
  font-size: 0.86rem;
}
.opening-card-columns ul {
  margin: 0;
  padding-left: 1rem;
  color: #6d7690;
  font-size: 0.84rem;
  display: grid;
  gap: 0.3rem;
}
.opening-card-actions {
  margin-top: 0.9rem;
  display: flex;
  align-items: center;
  gap: 0.6rem;
}
.opening-apply-btn,
.opening-share-btn {
  border-radius: 999px;
  min-height: 34px;
  padding: 0.4rem 0.8rem;
  font-size: 0.82rem;
  font-weight: 700;
  text-decoration: none;
}
.opening-apply-btn {
  color: var(--logiweb-btn-primary-text);
  background: var(--logiweb-btn-primary-bg);
}
.opening-share-btn {
  border: 1px solid var(--logiweb-block-surface-border);
  background: var(--logiweb-block-card-background);
  color: var(--logiweb-block-text-color);
}
.openings-board-sidebar {
  display: grid;
  gap: 0.8rem;
  position: sticky;
  top: 16px;
}
.openings-reviews-card {
  background: rgb(15, 23, 42);
  color: #e9edff;
  border-radius: 14px;
  padding: 14px;
}
.openings-reviews-card h3 {
  color: white;
  margin: 0;
  display: flex;
  gap: 0.45rem;
  align-items: center;
  font-size: 0.875rem;
}
.openings-review-item {
  margin-top: 0.85rem;
  border-top: 1px solid rgba(255, 255, 255, 0.14);
  padding-top: 0.75rem;
}
.openings-review-item .stars {
  margin: 0;
  color: #f5d33f;
  letter-spacing: 0.08em;
  font-size: 0.9rem;
}
.openings-review-item .text {
  margin: 0.35rem 0 0;
  font-size: 0.84rem;
  line-height: 1.45;
}
.openings-review-item .meta {
  margin: 0.4rem 0 0;
  display: flex;
  justify-content: space-between;
  color: #95a2d8;
  font-size: 0.8rem;
}
.openings-referral-card {
  background: linear-gradient(130deg, #2d44ea 0%, #384cf3 100%);
  border-radius: 14px;
  padding: 14px;
  color: #fff;
}
.openings-referral-card h4,
.openings-questions-card h4 {
  color: #fff;
  margin: 0;
  font-size: 1.1rem;
}
.openings-referral-card p,
.openings-questions-card p {
  margin: 0.55rem 0 0;
  font-size: 0.86rem;
  line-height: 1.45;
}
.openings-referral-card a {
  margin-top: 0.7rem;
  display: inline-flex;
  min-height: 34px;
  padding: 0.35rem 0.8rem;
  align-items: center;
  justify-content: center;
  border-radius: 999px;
  background: #fff;
  color: #2f52e0;
  text-decoration: none;
  font-size: 0.82rem;
  font-weight: 700;
}
.openings-questions-card {
  background: var(--logiweb-block-card-background);
  border-radius: 14px;
  border: 1px solid var(--logiweb-block-surface-border);
  padding: 14px;
}
.openings-questions-card a {
  margin-top: 0.6rem;
  display: inline-flex;
  align-items: center;
  gap: 0.4rem;
  color: var(--logiweb-block-subtitle-color);
  text-decoration: none;
  font-weight: var(--logiweb-block-subtitle-font-weight);
}
.openings-board-editor .openings-board-block {
  border-radius: 12px;
}
@media (max-width: 980px) {
  .openings-board-grid {
    grid-template-columns: 1fr;
  }
  .openings-board-sidebar {
    position: static;
  }
}
@media (max-width: 640px) {
  .openings-board-title {
    font-size: var(--logiweb-block-title-size-section);
  }
  .opening-card-columns {
    grid-template-columns: 1fr;
  }
}
.questions-cta-block {
  position: relative;
  overflow: hidden;
  padding: clamp(54px, 9vw, 96px) clamp(18px, 4vw, 28px);
  background: radial-gradient(circle at 50% 12%, rgba(255, 255, 255, 0.18), transparent 22%), radial-gradient(circle at 12% 50%, rgba(255, 255, 255, 0.08), transparent 28%), radial-gradient(circle at 88% 40%, rgba(255, 255, 255, 0.08), transparent 26%), linear-gradient(135deg, #2638e4 0%, #3344ec 35%, #4451f0 100%);
  width: 100%;
}
.questions-cta-inner {
  max-width: 760px;
  margin: 0 auto;
  text-align: center;
  color: #ffffff;
}
.questions-cta-icon-wrap {
  width: 72px;
  height: 72px;
  margin: 0 auto 1.35rem;
  border-radius: 999px;
  border: 1px solid rgba(255, 255, 255, 0.18);
  background: rgba(255, 255, 255, 0.14);
  backdrop-filter: blur(8px);
  display: inline-flex;
  align-items: center;
  justify-content: center;
  color: #ffffff;
  font-size: 1.55rem;
  box-shadow: 0 18px 40px rgba(10, 18, 80, 0.18);
}
.questions-cta-title {
  margin: 0;
  color: #ffffff;
  font-size: var(--logiweb-block-title-size-section);
  line-height: 1.08;
  font-weight: var(--logiweb-block-title-font-weight) !important;
  letter-spacing: -0.03em;
}
.questions-cta-description {
  max-width: 620px;
  margin: 1rem auto 0;
  color: rgba(255, 255, 255, 0.84);
  font-size: clamp(1rem, 1.5vw, 1.1rem);
  line-height: 1.65;
}
.questions-cta-actions {
  margin-top: 1.8rem;
  display: flex;
  align-items: center;
  justify-content: center;
  flex-wrap: wrap;
  gap: 0.9rem;
}
.questions-cta-button {
  text-decoration: none;
  border-radius: 999px;
  min-height: 54px;
  padding: 0.9rem 1.4rem;
  display: inline-flex;
  align-items: center;
  justify-content: center;
  gap: 0.65rem;
  font-size: 0.98rem;
  font-weight: 700;
  transition: transform 0.2s ease, box-shadow 0.2s ease, background-color 0.2s ease, border-color 0.2s ease;
}
.questions-cta-button:hover {
  transform: translateY(-1px);
}
.questions-cta-button-primary {
  background: #ffffff;
  color: #2b3fe2;
  box-shadow: 0 18px 36px rgba(12, 18, 77, 0.18);
}
.questions-cta-button-secondary {
  color: #ffffff;
  border: 1px solid rgba(255, 255, 255, 0.22);
  background: rgba(255, 255, 255, 0.04);
}
.questions-cta-meta {
  margin-top: 1.55rem;
  display: flex;
  justify-content: center;
  align-items: center;
  gap: 1.4rem;
  flex-wrap: wrap;
}
.questions-cta-meta-item {
  display: inline-flex;
  align-items: center;
  gap: 0.55rem;
  color: rgba(255, 255, 255, 0.82);
  text-decoration: none;
  font-size: 0.96rem;
  font-weight: 500;
}
.questions-cta-editor .questions-cta-block {
  border-radius: 18px;
}
.info-cards-section {
  padding: clamp(28px, 4vw, 44px) clamp(14px, 3vw, 22px);
  background: #f8f8f7;
  width: 100%;
}
.info-cards-grid {
  max-width: 1020px;
  margin: 0 auto;
  display: grid;
  grid-template-columns: repeat(3, minmax(0, 1fr));
  gap: 1.35rem;
}
.info-card {
  background: #ffffff;
  border: 1px solid #edf0f5;
  border-radius: 22px;
  padding: 1.6rem 1.55rem;
  box-shadow: 0 14px 28px rgba(18, 28, 45, 0.08);
  text-decoration: none;
  display: block;
  transition: transform 0.2s ease, box-shadow 0.2s ease, border-color 0.2s ease;
}
.info-card:hover {
  transform: translateY(-2px);
  border-color: #d9dff0;
  box-shadow: 0 18px 32px rgba(18, 28, 45, 0.12);
}
.info-card-icon-wrap {
  width: 48px;
  height: 48px;
  border-radius: 14px;
  background: #eef0ff;
  color: #596fe5;
  display: inline-flex;
  align-items: center;
  justify-content: center;
  margin-bottom: 1rem;
  font-size: 1.05rem;
}
.info-card-title {
  margin: 0;
  color: #21293e;
  font-size: var(--logiweb-block-title-size-lg);
  font-weight: var(--logiweb-block-title-font-weight) !important;
  line-height: 1.15;
  font-weight: 700;
}
.info-card-description {
  margin: 0.7rem 0 0;
  color: #667086;
  font-size: 1rem;
  line-height: 1.6;
}
.info-cards-editor .info-card {
  min-height: 100%;
}
@media (max-width: 900px) {
  .info-cards-grid {
    grid-template-columns: 1fr;
  }
}
@media (max-width: 640px) {
  .questions-cta-block {
    padding: 42px 16px;
  }
  .questions-cta-icon-wrap {
    width: 62px;
    height: 62px;
    font-size: 1.35rem;
  }
  .questions-cta-button {
    width: 100%;
  }
  .questions-cta-meta {
    gap: 0.9rem;
    flex-direction: column;
  }
}
.financing-hero-block {
  width: 100%;
  padding: clamp(54px, 8vw, 92px) clamp(16px, 3vw, 24px);
  background: radial-gradient(circle at 0% 0%, var(--logiweb-block-accent-green-soft) 0%, transparent 34%), linear-gradient(120deg, var(--logiweb-block-accent-green) 0%, var(--primary) 100%);
}
.financing-hero-inner {
  max-width: 740px;
  margin: 0 auto;
  text-align: center;
  color: var(--logiweb-block-title-color-inverse);
}
.financing-hero-badge {
  display: inline-flex;
  align-items: center;
  gap: 0.45rem;
  margin: 0;
  color: var(--logiweb-block-subtitle-color-inverse);
  font-size: var(--logiweb-block-subtitle-size-sm);
  text-transform: uppercase;
  letter-spacing: 0.08em;
  font-weight: var(--logiweb-block-subtitle-font-weight);
}
.financing-hero-title {
  margin: 0.7rem 0 0;
  color: var(--logiweb-block-title-color-inverse);
  font-size: var(--logiweb-block-title-size-hero);
  line-height: 1.08;
  font-weight: var(--logiweb-block-title-font-weight-strong);
  letter-spacing: -0.03em;
}
.financing-hero-highlight {
  color: var(--logiweb-block-accent-white);
}
.financing-hero-description {
  max-width: 640px;
  margin: 1rem auto 0;
  color: var(--logiweb-block-text-color-inverse);
  font-size: var(--logiweb-block-text-size-md);
  line-height: 1.65;
}
.financing-hero-actions {
  margin-top: 1.6rem;
  display: flex;
  flex-wrap: wrap;
  justify-content: center;
  gap: 0.85rem;
}
.financing-hero-btn {
  min-height: 52px;
  border-radius: var(--rounded-full);
  padding: 0.9rem 1.5rem;
  display: inline-flex;
  align-items: center;
  justify-content: center;
  gap: 0.55rem;
  text-decoration: none;
  font-size: var(--logiweb-block-text-size-sm);
  font-weight: var(--logiweb-block-title-font-weight-strong);
  transition: transform 0.2s ease, box-shadow 0.2s ease, background-color 0.2s ease;
}
.financing-hero-btn:hover {
  transform: translateY(-1px);
}
.financing-hero-btn.primary {
  background: var(--logiweb-block-card-background);
  color: var(--logiweb-block-accent-green);
  box-shadow: var(--logiweb-block-surface-shadow);
}
.financing-hero-btn.secondary {
  background: var(--logiweb-block-card-background);
  color: var(--logiweb-block-accent-green);
  opacity: 0.96;
}
.financing-steps-block {
  background-color: #a1a1a1;
}
.credit-options-block {
  max-width: 1100px !important;
  margin: 0 auto;
}
.credit-options-inner {
  max-width: 1100px !important;
}
.financing-benefits-block,
.financing-steps-block,
.credit-options-block {
  width: 100%;
  background: var(--logiweb-block-card-background);
  padding: clamp(52px, 8vw, 88px) clamp(16px, 3vw, 26px);
}
.financing-benefits-inner,
.financing-steps-inner,
.credit-options-inner {
  max-width: 900px;
  margin: 0 auto;
  display: flex;
  flex-direction: column;
}
.financing-benefits-badge,
.financing-steps-badge,
.credit-options-badge {
  width: -moz-fit-content;
  width: fit-content;
  margin: 0 auto;
  border-radius: var(--rounded-full);
  padding: 0.45rem 0.85rem;
  display: inline-flex;
  align-items: center;
  justify-content: center;
  gap: 0.4rem;
  background: var(--logiweb-block-accent-green-soft);
  color: var(--logiweb-block-accent-green);
  text-transform: none;
  font-size: var(--logiweb-block-subtitle-size-sm);
  font-weight: var(--logiweb-block-subtitle-font-weight);
}
.financing-benefits-title,
.financing-steps-title,
.credit-options-title {
  margin: 0.95rem 0 0;
  text-align: center;
  color: var(--logiweb-block-title-color);
  font-size: var(--logiweb-block-title-size-section);
  line-height: 1.1;
  letter-spacing: -0.03em;
  font-weight: var(--logiweb-block-title-font-weight-strong);
}
.financing-benefits-highlight {
  color: var(--logiweb-block-accent-green);
}
.financing-steps-highlight {
  color: var(--logiweb-block-title-highlight-color);
}
.financing-benefits-description,
.financing-steps-description,
.credit-options-description {
  max-width: 700px;
  margin: 1rem auto 0;
  text-align: center;
  color: var(--logiweb-block-text-color);
  font-size: var(--logiweb-block-text-size-md);
  line-height: 1.7;
}
.financing-benefits-grid {
  margin-top: 2rem;
  display: grid;
  grid-template-columns: repeat(2, minmax(0, 1fr));
  gap: 1.1rem;
}
.financing-benefit-card {
  border: 1px solid var(--logiweb-block-surface-border);
  border-radius: 16px;
  padding: 1.35rem;
  background: none !important;
}
.financing-benefit-icon {
  width: 48px;
  height: 48px;
  border-radius: 13px;
  display: inline-flex;
  align-items: center;
  justify-content: center;
  color: var(--logiweb-block-title-color-inverse);
  font-size: 0.875rem;
  box-shadow: var(--logiweb-block-surface-shadow);
}
.financing-benefit-title {
  margin: 0.85rem 0 0;
  color: var(--logiweb-block-title-color);
  font-size: var(--logiweb-block-text-size-lg);
  line-height: 1.16;
  font-weight: var(--logiweb-block-title-font-weight-strong);
}
.financing-benefit-description {
  margin: 0.55rem 0 0;
  color: var(--logiweb-block-text-color);
  font-size: var(--logiweb-block-text-size-sm);
  line-height: 1.65;
}
.financing-steps-grid {
  margin-top: 2.1rem;
  display: grid;
  grid-template-columns: repeat(4, minmax(0, 1fr));
  gap: 0.9rem;
}
.financing-step-wrap {
  position: relative;
}
.financing-step-card {
  background: var(--logiweb-block-card-background);
  border: 1px solid var(--logiweb-block-surface-border);
  border-radius: 16px;
  box-shadow: var(--logiweb-block-surface-shadow);
  padding: 1.35rem 1.2rem;
  text-align: center;
  min-height: 100%;
}
.financing-step-number {
  width: 55px;
  height: 55px;
  border-radius: 14px;
  margin: 0 auto 0.9rem;
  display: inline-flex;
  align-items: center;
  justify-content: center;
  color: var(--logiweb-block-title-color-inverse);
  font-size: var(--logiweb-block-text-size-lg);
  font-weight: var(--logiweb-block-title-font-weight-strong);
  box-shadow: var(--logiweb-block-surface-shadow);
}
.financing-step-title {
  margin: 0;
  color: var(--logiweb-block-title-color);
  font-size: var(--logiweb-block-text-size-sm);
  line-height: 1.16;
  font-weight: var(--logiweb-block-title-font-weight-strong);
}
.financing-step-description {
  margin: 0.55rem 0 0;
  color: var(--logiweb-block-text-color);
  font-size: var(--logiweb-block-text-size-sm);
  line-height: 1.6;
}
.financing-step-arrow {
  width: 40px;
  height: 40px;
  border-radius: var(--rounded-full);
  position: absolute;
  top: 50%;
  right: -22px;
  transform: translateY(-50%);
  display: inline-flex;
  align-items: center;
  justify-content: center;
  color: var(--logiweb-block-title-color-inverse);
  box-shadow: var(--logiweb-block-surface-shadow);
  z-index: 2;
}
.credit-options-badge {
  background: transparent;
  color: var(--logiweb-block-subtitle-color);
  letter-spacing: 0.08em;
  text-transform: uppercase;
  width: 100%;
}
.credit-options-grid {
  margin-top: 2rem;
  display: grid;
  grid-template-columns: repeat(4, minmax(0, 1fr));
  gap: 0.95rem;
}
.credit-option-card {
  border: 1px solid var(--logiweb-block-surface-border);
  border-radius: 14px;
  background: var(--logiweb-block-card-background);
  overflow: hidden;
}
.credit-option-top {
  padding: 1.05rem;
  padding-top: 1.55rem;
  display: flex;
  flex-direction: row;
  flex-wrap: wrap;
  align-items: center;
  gap: 0.5rem;
  background: none !important;
}
.credit-option-dot {
  width: 11px;
  height: 11px;
  border-radius: var(--rounded-full);
  display: inline-block;
  align-self: flex-start;
}
.credit-option-top-title {
  color: var(--logiweb-block-title-color);
  font-size: var(--logiweb-block-text-size-sm);
  line-height: 1.15;
  font-weight: var(--logiweb-block-title-font-weight-strong);
}
.credit-option-top-subtitle {
  flex-basis: 100%;
  margin: 0.35rem 0 0;
  color: var(--logiweb-block-text-color);
  font-size: var(--logiweb-block-text-size-sm);
}
.credit-option-body {
  padding: 1.1rem 1.05rem 1.15rem;
}
.credit-option-main-title {
  margin: 0;
  color: var(--logiweb-block-title-color);
  font-size: var(--logiweb-block-text-size-lg);
  line-height: 1.08;
  font-weight: var(--logiweb-block-title-font-weight-strong);
}
.credit-option-details {
  margin: 0.7rem 0 0;
  color: var(--logiweb-block-text-color);
  font-size: var(--logiweb-block-text-size-sm);
  line-height: 1.58;
}
.credit-option-tags {
  margin-top: 0.75rem;
  display: flex;
  flex-wrap: wrap;
  gap: 0.4rem;
}
.credit-option-tags span {
  font-size: var(--logiweb-block-text-size-xs);
  font-weight: var(--logiweb-block-subtitle-font-weight);
  color: var(--logiweb-block-text-color);
  background: var(--logiweb-block-muted-background);
  border: 1px solid var(--logiweb-block-surface-border);
  padding: 0.24rem 0.5rem;
  border-radius: 999px;
}
.financing-hero-editor .financing-hero-block,
.financing-benefits-editor .financing-benefits-block,
.financing-steps-editor .financing-steps-block,
.credit-options-editor .credit-options-block {
  border-radius: 14px;
}
@media (max-width: 1100px) {
  .credit-options-grid {
    grid-template-columns: repeat(2, minmax(0, 1fr));
  }
  .financing-step-arrow {
    display: none;
  }
}
@media (max-width: 900px) {
  .financing-benefits-grid,
  .financing-steps-grid {
    grid-template-columns: 1fr;
  }
}
@media (max-width: 640px) {
  .financing-hero-btn {
    width: 100%;
  }
  .credit-options-grid {
    grid-template-columns: 1fr;
  }
  .financing-benefit-title,
  .financing-step-title,
  .credit-option-main-title {
    font-size: var(--logiweb-block-title-size-small);
  }
}
.financing-partners-block {
  padding: clamp(2.4rem, 4vw, 3.8rem) 1.2rem;
  background: var(--logiweb-block-muted-background);
  width: 100%;
}
.financing-partners-inner {
  width: 60%;
  margin: 0 auto;
}
.financing-partners-badge {
  display: table;
  margin: 0 auto 0.85rem;
  padding: 0.38rem 0.8rem;
  border-radius: var(--rounded-full);
  background: var(--logiweb-block-muted-background);
  color: var(--logiweb-block-subtitle-color);
  font-size: var(--logiweb-block-subtitle-size-sm);
  font-weight: var(--logiweb-block-subtitle-font-weight);
  letter-spacing: 0.08em;
  text-transform: uppercase;
}
.financing-partners-title {
  margin: 0;
  text-align: center;
  color: var(--logiweb-block-title-color);
  font-size: var(--logiweb-block-title-size-section);
  line-height: 1.1;
  letter-spacing: -0.02em;
}
.financing-partners-highlight {
  color: var(--logiweb-block-title-highlight-color);
}
.financing-partners-description {
  max-width: 640px;
  margin: 0.82rem auto 0;
  text-align: center;
  color: var(--logiweb-block-text-color);
  font-size: var(--logiweb-block-text-size-sm);
  line-height: 1.6;
}
.financing-partners-grid {
  margin-top: 2.1rem;
  display: grid;
  grid-template-columns: repeat(3, minmax(0, 1fr));
  gap: 1rem;
}
.financing-partner-card {
  border: 1px solid var(--logiweb-block-surface-border);
  border-radius: 14px;
  background: var(--logiweb-block-card-background);
  padding: 0.95rem;
  display: flex;
  flex-direction: column;
}
.financing-partner-card.is-dark {
  background: #0E2442;
  border-color: transparent;
  color: var(--logiweb-block-title-color-inverse);
}
.financing-partner-name {
  border-radius: 10px;
  padding: 0.8rem 0.9rem;
  padding-left: 0;
  background: none !important;
}
.financing-partner-name h3 {
  margin: 0;
  text-align: center;
  font-size: var(--logiweb-block-text-size-lg);
  line-height: 1.15;
  letter-spacing: -0.02em;
  color: inherit !important;
  text-align: left;
}
.financing-partner-stats {
  margin-top: 0.9rem;
  padding-bottom: 0.8rem;
  border-bottom: 1px solid var(--logiweb-block-surface-border);
}
.financing-partner-card.is-dark .financing-partner-stats {
  border-bottom-color: rgba(255, 255, 255, 0.17);
}
.financing-partner-row {
  display: flex;
  align-items: center;
  justify-content: space-between;
  gap: 0.7rem;
  margin-top: 0.52rem;
}
.financing-partner-row:first-child {
  margin-top: 0;
}
.financing-partner-row > span,
.financing-partner-row > strong {
  color: var(--logiweb-block-title-color);
  font-size: var(--logiweb-block-text-size-sm);
}
.financing-partner-row > span {
  color: var(--logiweb-block-text-color);
}
.financing-partner-row > strong {
  margin: 0;
  font-weight: var(--logiweb-block-title-font-weight-strong);
  text-align: right;
}
.financing-partner-card.is-dark .financing-partner-row > span {
  color: var(--logiweb-block-text-color-inverse);
}
.financing-partner-card.is-dark .financing-partner-row > strong {
  color: var(--logiweb-block-title-color-inverse);
}
.financing-partner-row .value-pill {
  display: inline-flex;
  align-items: center;
  justify-content: center;
  min-height: 24px;
  border-radius: var(--rounded-full);
  padding: 0.1rem 0.55rem;
  line-height: 1.1;
  font-size: var(--logiweb-block-text-size-sm);
  font-weight: var(--logiweb-block-title-font-weight-strong);
}
.financing-partner-note {
  margin-top: 0.78rem;
  display: flex;
  align-items: center;
  gap: 0.45rem;
}
.financing-partner-note .dot {
  width: 8px;
  height: 8px;
  border-radius: var(--rounded-full);
  flex: 0 0 auto;
}
.financing-partner-note p {
  margin: 0;
  color: var(--logiweb-block-text-color);
  font-size: var(--logiweb-block-text-size-sm);
  line-height: 1.45;
  font-weight: var(--logiweb-block-subtitle-font-weight);
}
.financing-partner-card.is-dark .financing-partner-note p {
  color: var(--logiweb-block-text-color-inverse);
}
.financing-partners-trust-row {
  margin-top: 1.2rem;
  display: flex;
  flex-wrap: wrap;
  align-items: center;
  justify-content: center;
  gap: 1.3rem;
}
.financing-trust-item {
  display: inline-flex;
  align-items: center;
  gap: 0.6rem;
}
.financing-trust-item .trust-icon {
  width: 34px;
  height: 34px;
  border-radius: var(--rounded-full);
  display: inline-flex;
  align-items: center;
  justify-content: center;
  font-size: var(--logiweb-block-text-size-sm);
}
.financing-trust-item h4 {
  margin: 0;
  color: var(--logiweb-block-title-color);
  font-size: var(--logiweb-block-text-size-sm);
  line-height: 1.25;
  font-weight: var(--logiweb-block-title-font-weight-strong);
}
.financing-trust-item p {
  margin: 0.1rem 0 0;
  color: var(--logiweb-block-text-color);
  font-size: var(--logiweb-block-text-size-sm);
  line-height: 1.35;
}
.financing-partners-editor .financing-partners-block {
  border-radius: 14px;
}
@media (max-width: 1060px) {
  .financing-partners-grid {
    grid-template-columns: repeat(2, minmax(0, 1fr));
  }
}
@media (max-width: 760px) {
  .financing-partners-grid {
    grid-template-columns: 1fr;
  }
  .financing-partner-name h3 {
    font-size: var(--logiweb-block-title-size-small);
  }
  .financing-partners-trust-row {
    justify-content: flex-start;
  }
}
.payment-estimator-block {
  padding: clamp(2.8rem, 4.8vw, 4.6rem) 1.2rem;
  width: 100%;
}
.payment-estimator-inner {
  max-width: 1130px;
  margin: 0 auto;
}
.payment-estimator-badge {
  display: table;
  margin: 0 auto 0.88rem;
  padding: 0.37rem 0.82rem;
  border-radius: var(--rounded-full);
  background: var(--logiweb-block-accent-blue-soft);
  color: var(--logiweb-block-subtitle-color);
  font-size: var(--logiweb-block-subtitle-size-sm);
  font-weight: var(--logiweb-block-subtitle-font-weight);
  letter-spacing: 0.06em;
}
.payment-estimator-badge i {
  margin-right: 0.45rem;
}
.payment-estimator-title {
  margin: 0;
  text-align: center;
  color: var(--logiweb-block-title-color);
  font-size: var(--logiweb-block-title-size-section);
  line-height: 1.08;
  letter-spacing: -0.02em;
}
.payment-estimator-highlight {
  color: var(--logiweb-block-title-highlight-color);
}
.payment-estimator-description {
  margin: 0.8rem auto 0;
  max-width: 670px;
  text-align: center;
  color: var(--logiweb-block-text-color);
  font-size: var(--logiweb-block-text-size-md);
  line-height: 1.58;
}
.payment-estimator-shell {
  margin-top: 2.2rem;
  border: 1px solid var(--logiweb-block-surface-border);
  border-radius: 16px;
  overflow: hidden;
  background: var(--logiweb-block-card-background);
  box-shadow: var(--logiweb-block-surface-shadow);
  display: grid;
  grid-template-columns: minmax(0, 1.12fr) minmax(300px, 0.72fr);
}
.payment-estimator-controls {
  padding: 1.7rem 1.9rem 1.55rem;
}
.payment-estimator-controls h3 {
  margin: 0;
  display: inline-flex;
  align-items: center;
  gap: 0.62rem;
  color: var(--logiweb-block-title-color);
  font-size: var(--logiweb-block-title-size-small);
  line-height: 1.15;
  font-weight: var(--logiweb-block-title-font-weight-strong);
}
.payment-estimator-controls h3 i {
  width: 34px;
  height: 34px;
  border-radius: 8px;
  background: var(--logiweb-block-accent-blue-soft);
  color: var(--logiweb-block-title-highlight-color);
  display: inline-flex;
  align-items: center;
  justify-content: center;
  font-size: var(--logiweb-block-text-size-sm);
}
.payment-slider-row {
  margin-top: 1.28rem;
  --pct: 50%;
}
.payment-slider-head {
  display: flex;
  align-items: center;
  justify-content: space-between;
  gap: 0.7rem;
}
.payment-slider-head span {
  color: var(--logiweb-block-text-color);
  font-size: var(--logiweb-block-text-size-sm);
  font-weight: var(--logiweb-block-subtitle-font-weight);
}
.payment-slider-head strong {
  color: var(--logiweb-block-title-highlight-color);
  font-size: var(--logiweb-block-text-size-lg);
  line-height: 1.08;
  letter-spacing: -0.02em;
}
.payment-slider-row input[type=range] {
  margin-top: 0.74rem;
  width: 100%;
  height: 6px;
  border-radius: var(--rounded-full);
  -webkit-appearance: none;
     -moz-appearance: none;
          appearance: none;
  outline: none;
  cursor: pointer;
  background: linear-gradient(to right, var(--logiweb-block-title-highlight-color) 0%, var(--logiweb-block-title-highlight-color) var(--pct), var(--logiweb-block-surface-border) var(--pct), var(--logiweb-block-surface-border) 100%);
}
.payment-slider-row input[type=range]::-webkit-slider-thumb {
  -webkit-appearance: none;
          appearance: none;
  width: 15px;
  height: 15px;
  border: 2px solid var(--logiweb-block-card-background);
  border-radius: var(--rounded-full);
  background: var(--logiweb-block-title-highlight-color);
  box-shadow: var(--logiweb-block-surface-shadow);
}
.payment-slider-row input[type=range]::-moz-range-thumb {
  width: 15px;
  height: 15px;
  border: 2px solid var(--logiweb-block-card-background);
  border-radius: var(--rounded-full);
  background: var(--logiweb-block-title-highlight-color);
  box-shadow: var(--logiweb-block-surface-shadow);
}
.payment-slider-limits {
  margin-top: 0.5rem;
  display: flex;
  justify-content: space-between;
  gap: 0.7rem;
}
.payment-slider-limits span {
  color: var(--logiweb-block-text-color);
  font-size: var(--logiweb-block-text-size-sm);
  font-weight: var(--logiweb-block-subtitle-font-weight);
}
.payment-estimator-summary {
  padding: 1.7rem 1.7rem 1.55rem;
  background: #0E2442;
  color: var(--logiweb-block-title-color-inverse);
}
.summary-eyebrow {
  text-align: center;
  margin: 0;
  color: var(--logiweb-block-subtitle-color-inverse);
  text-transform: uppercase;
  letter-spacing: 0.08em;
  font-size: var(--logiweb-block-subtitle-size-sm);
  font-weight: var(--logiweb-block-subtitle-font-weight);
}
.summary-amount {
  text-align: center;
  margin: 0.68rem 0 0;
  color: var(--logiweb-block-title-color-inverse);
  font-size: var(--logiweb-block-title-size-hero);
  line-height: 1;
  letter-spacing: -0.03em;
  font-weight: var(--logiweb-block-title-font-weight-strong);
}
.summary-period {
  text-align: center;
  margin: 0.2rem 0 0;
  color: var(--logiweb-block-text-color-inverse);
  font-size: var(--logiweb-block-text-size-sm);
  font-weight: var(--logiweb-block-subtitle-font-weight);
}
.summary-breakdown {
  margin-top: 1.18rem;
}
.summary-breakdown > div {
  display: flex;
  align-items: center;
  justify-content: space-between;
  gap: 0.6rem;
  padding: 0.56rem 0;
  border-bottom: 1px solid rgba(255, 255, 255, 0.15);
}
.summary-breakdown > div span {
  color: var(--logiweb-block-text-color-inverse);
  font-size: var(--logiweb-block-text-size-sm);
}
.summary-breakdown > div strong {
  color: var(--logiweb-block-title-color-inverse);
  font-size: var(--logiweb-block-title-size-small);
  line-height: 1.1;
}
.summary-note {
  margin: 0.82rem 0 0;
  color: var(--logiweb-block-text-color-inverse);
  font-size: var(--logiweb-block-text-size-sm);
  line-height: 1.46;
}
.payment-estimator-editor .payment-estimator-block {
  border-radius: 14px;
}
@media (max-width: 980px) {
  .payment-estimator-shell {
    grid-template-columns: 1fr;
  }
}
@media (max-width: 680px) {
  .payment-estimator-controls,
  .payment-estimator-summary {
    padding: 1.2rem;
  }
  .payment-slider-head strong {
    font-size: var(--logiweb-block-title-size-small);
  }
}
.ready-start-block {
  position: relative;
  overflow: hidden;
  padding: clamp(27px, 8vw, 54px) clamp(16px, 3vw, 22px);
  width: 100%;
  background: radial-gradient(circle at 20% 20%, rgba(255, 255, 255, 0.08), transparent 32%), radial-gradient(circle at 78% 18%, rgba(255, 255, 255, 0.08), transparent 34%), linear-gradient(145deg, #64b96f 0%, #5daf76 36%, #58a67f 70%, #569e85 100%);
}
.ready-start-inner {
  max-width: 760px;
  margin: 0 auto;
  text-align: center;
  color: #ffffff;
}
.ready-start-top-icon {
  width: 72px;
  height: 72px;
  border-radius: 999px;
  display: inline-flex;
  align-items: center;
  justify-content: center;
  margin: 0 auto 1.15rem;
  border: 1px solid rgba(255, 255, 255, 0.2);
  background: rgba(255, 255, 255, 0.14);
  backdrop-filter: blur(5px);
  color: #ffffff;
  font-size: 1.4rem;
}
.ready-start-title {
  margin: 0;
  color: #ffffff;
  font-size: var(--logiweb-block-title-size-section);
  line-height: 1.08;
  font-weight: 700;
  letter-spacing: -0.03em;
}
.ready-start-description {
  margin: 0.95rem auto 0;
  max-width: 640px;
  color: rgba(255, 255, 255, 0.82);
  font-size: clamp(1rem, 1.5vw, 1.08rem);
  line-height: 1.62;
}
.ready-start-actions {
  margin-top: 1.55rem;
  display: flex;
  justify-content: center;
  align-items: center;
  flex-wrap: wrap;
  gap: 0.72rem;
}
.ready-start-btn {
  min-height: 52px;
  min-width: 184px;
  border-radius: 999px;
  padding: 0.78rem 1.32rem;
  text-decoration: none;
  display: inline-flex;
  align-items: center;
  justify-content: center;
  gap: 0.56rem;
  font-size: 0.97rem;
  font-weight: 700;
  transition: transform 0.2s ease, box-shadow 0.2s ease;
}
.ready-start-btn:hover {
  transform: translateY(-1px);
}
.ready-start-btn.is-primary {
  background: #ffffff;
  color: #3f8f5b;
  box-shadow: 0 16px 34px rgba(22, 75, 47, 0.18);
}
.ready-start-btn.is-secondary {
  background: #ffffff;
  color: #5aa97d;
  opacity: 0.98;
}
.ready-start-points {
  margin-top: 1.45rem;
  display: flex;
  justify-content: center;
  align-items: center;
  flex-wrap: wrap;
  gap: 1.28rem;
}
.ready-start-point {
  display: inline-flex;
  align-items: center;
  gap: 0.5rem;
  color: rgba(255, 255, 255, 0.72);
  font-size: 0.95rem;
  font-weight: 600;
}
.ready-start-point i {
  font-size: 0.95rem;
}
.ready-start-editor .ready-start-block {
  border-radius: 16px;
}
@media (max-width: 640px) {
  .ready-start-top-icon {
    width: 62px;
    height: 62px;
    font-size: 1.25rem;
  }
  .ready-start-btn {
    width: 100%;
  }
  .ready-start-points {
    flex-direction: column;
    gap: 0.82rem;
  }
}
.apply-financing-banner-block {
  width: 100%;
  overflow: hidden;
}
.apply-financing-banner-hero {
  padding: clamp(56px, 8vw, 98px) clamp(18px, 3vw, 24px);
  text-align: center;
  color: #ffffff;
  background: radial-gradient(circle at 12% 22%, rgba(255, 255, 255, 0.09), transparent 30%), radial-gradient(circle at 85% -5%, rgba(255, 255, 255, 0.08), transparent 30%), linear-gradient(135deg, #3d61e2 0%, #314fcd 35%, #233ba6 68%, #1a2f82 100%);
  width: 100%;
}
.apply-financing-banner-badge {
  margin: 0;
  color: #cfdbff;
  font-size: 0.78rem;
  font-weight: 700;
  letter-spacing: 0.08em;
  text-transform: uppercase;
  display: inline-flex;
  align-items: center;
  gap: 0.45rem;
}
.apply-financing-banner-title {
  margin: 0.78rem 0 0;
  color: #ffffff;
  font-size: var(--logiweb-block-title-size-hero);
  line-height: 1.06;
  letter-spacing: -0.03em;
  font-weight: 600;
}
.apply-financing-banner-highlight {
  color: #ffffff;
}
.apply-financing-banner-description {
  margin: 0.9rem auto 0;
  max-width: 700px;
  color: rgba(228, 235, 255, 0.9);
  font-size: clamp(1rem, 1.35vw, 1.15rem);
  line-height: 1.55;
}
.apply-financing-banner-strip {
  background: #f3f5f8;
  border-top: 1px solid #dce1ea;
  border-bottom: 1px solid #dce1ea;
  padding: 1.1rem 1rem;
  width: 100%;
  display: none;
}
.apply-financing-banner-strip-inner {
  max-width: 1220px;
  margin: 0 auto;
  display: grid;
  grid-template-columns: repeat(4, minmax(0, 1fr));
  gap: 0.85rem;
}
.apply-financing-feature {
  display: flex;
  align-items: flex-start;
  gap: 0.68rem;
}
.apply-financing-feature-icon {
  width: 38px;
  height: 38px;
  border-radius: 11px;
  background: #e3e9f7;
  color: #4d67c5;
  display: inline-flex;
  align-items: center;
  justify-content: center;
  font-size: 0.95rem;
  flex: 0 0 auto;
}
.apply-financing-feature-content h3 {
  margin: 0;
  color: #1f2a43;
  font-size: 1.16rem;
  line-height: 1.2;
  font-weight: 700;
}
.apply-financing-feature-content p {
  margin: 0.22rem 0 0;
  color: #6a7590;
  font-size: 0.84rem;
  line-height: 1.46;
}
.apply-financing-banner-editor .apply-financing-banner-block {
  border-radius: 14px;
}
@media (max-width: 1100px) {
  .apply-financing-banner-strip-inner {
    grid-template-columns: repeat(2, minmax(0, 1fr));
  }
}
@media (max-width: 700px) {
  .apply-financing-banner-strip-inner {
    grid-template-columns: 1fr;
  }
  .apply-financing-feature-content h3 {
    font-size: 1.05rem;
  }
}
/* ── Block 43 – FAQ Section ── */
.faq-block {
  padding: 80px 24px;
}
.faq-block-inner {
  max-width: 1100px;
  margin: 0 auto;
}
.faq-block-header {
  text-align: center;
  margin-bottom: 48px;
}
.faq-block-title {
  font-size: clamp(1.6rem, 3vw, 2.1rem);
  font-weight: 700;
  color: #1f2c45;
  margin: 0 0 10px;
}
.faq-block-subtitle {
  font-size: 1rem;
  color: #6b7280;
  margin: 0;
}
.faq-block-grid {
  display: grid;
  grid-template-columns: repeat(2, 1fr);
  gap: 20px;
}
.faq-block-card {
  background: #ffffff;
  border-radius: 14px;
  padding: 28px 30px;
  border: 1px solid #e8ecf3;
}
.faq-block-question {
  font-size: 0.97rem;
  font-weight: 700;
  color: #1f2c45;
  margin: 0 0 10px;
}
.faq-block-answer {
  font-size: 0.92rem;
  color: #6b7280;
  line-height: 1.6;
  margin: 0;
}
.faq-block-editor .faq-block-inner {
  max-width: 100%;
}
@media (max-width: 700px) {
  .faq-block-grid {
    grid-template-columns: 1fr;
  }
  .faq-block {
    padding: 48px 16px;
  }
}
/* ── Block 44 – Application Form ── */
.financing-app-form-block {
  padding: clamp(48px, 6vw, 80px) 16px;
}
.financing-app-form-inner {
  max-width: 900px;
  margin: 0 auto;
}
.financing-app-form-title {
  font-size: clamp(1.8rem, 3.5vw, 2.5rem);
  font-weight: 700;
  color: #1f2c45;
  text-align: center;
  margin: 0 0 12px;
  line-height: 1.1;
}
.financing-app-form-description {
  font-size: 1rem;
  color: #6b7280;
  text-align: center;
  margin: 0 0 28px;
  line-height: 1.6;
}
.financing-app-form {
  background: #ffffff;
  border-radius: 16px;
  border: 1px solid #e8edf5;
  box-shadow: 0 10px 30px rgba(31, 44, 69, 0.08);
  padding: 32px 28px;
}
.financing-app-form > div,
.financing-app-form > label,
.financing-app-form > input,
.financing-app-form > select,
.financing-app-form > textarea {
  margin-bottom: 18px;
}
.financing-app-form > div:last-of-type {
  margin-bottom: 24px;
}
.form-row {
  display: grid;
  grid-template-columns: 1fr 1fr;
  gap: 16px;
}
.form-row-3col {
  grid-template-columns: 2fr 1fr 1fr;
}
.financing-app-form label {
  display: block;
  font-size: 0.85rem;
  font-weight: 600;
  color: #4b5563;
  margin-bottom: 6px;
}
.financing-app-form input,
.financing-app-form select,
.financing-app-form textarea {
  width: 100%;
  padding: 11px 14px;
  font-size: 0.95rem;
  border: 1px solid #dce3ee;
  border-radius: 10px;
  background: #ffffff;
  color: #1f2c45;
  font-family: inherit;
  transition: border-color 0.2s ease, box-shadow 0.2s ease;
}
.financing-app-form input:focus,
.financing-app-form select:focus,
.financing-app-form textarea:focus {
  outline: none;
  border-color: #3654de;
  box-shadow: 0 0 0 3px rgba(54, 84, 222, 0.12);
}
.financing-app-form textarea {
  resize: vertical;
  min-height: 100px;
}
.financing-app-form select {
  -webkit-appearance: none;
     -moz-appearance: none;
          appearance: none;
  background-image: url("data:image/svg+xml,%3Csvg xmlns=%27http://www.w3.org/2000/svg%27 width=%2716%27 height=%2716%27 viewBox=%270 0 24 24%27 fill=%27none%27 stroke=%27%236b7280%27 stroke-width=%272%27%3E%3Cpolyline points=%276 9 12 15 18 9%27/%3E%3C/svg%3E");
  background-repeat: no-repeat;
  background-position: right 12px center;
  padding-right: 36px;
}
.financing-app-submit {
  width: 100%;
  padding: 14px 24px;
  background: linear-gradient(135deg, #2f4ee0 0%, #2b46d2 100%);
  color: #ffffff;
  font-size: 0.95rem;
  font-weight: 700;
  border: 0;
  border-radius: 10px;
  cursor: pointer;
  transition: transform 0.2s ease, box-shadow 0.2s ease;
}
.financing-app-submit:hover {
  transform: translateY(-2px);
  box-shadow: 0 12px 24px rgba(47, 78, 224, 0.3);
}
.financing-app-submit:active {
  transform: translateY(0);
}
.financing-app-encrypted {
  font-size: 0.85rem;
  color: #6b7280;
  text-align: center;
  margin: 14px 0 0;
}
@media (max-width: 700px) {
  .financing-app-form {
    padding: 20px 16px;
  }
  .form-row,
  .form-row-3col {
    grid-template-columns: 1fr;
  }
}
/* ── Block 45 – Financing Results ── */
.financing-results-block {
  padding: clamp(48px, 6vw, 80px) 16px;
  width: 100%;
}
.financing-results-inner {
  max-width: 1200px;
  margin: 0 auto;
  width: 100%;
}
.financing-results-header {
  text-align: center;
  margin-bottom: 48px;
}
.financing-results-title {
  font-size: clamp(1.8rem, 3.5vw, 2.5rem);
  font-weight: 700;
  color: #1f2c45;
  margin: 0 0 10px;
  line-height: 1.1;
}
.financing-results-subtitle {
  font-size: 1rem;
  color: #6b7280;
  margin: 0 0 24px;
}
.financing-results-summary {
  display: flex;
  justify-content: center;
  align-items: center;
  gap: 20px;
  flex-wrap: wrap;
  background: #ffffff;
  border: 1px solid #e8edf5;
  border-radius: 12px;
  padding: 16px 20px;
}
.summary-item {
  display: flex;
  flex-direction: column;
  gap: 4px;
  font-size: 0.85rem;
}
.summary-item span {
  color: #9aa4ba;
  font-weight: 500;
}
.summary-item strong {
  color: #1f2c45;
  font-weight: 700;
}
.btn-edit-info {
  display: inline-flex;
  align-items: center;
  gap: 6px;
  padding: 8px 16px;
  background: #ffffff;
  border: 1px solid #dce3ee;
  border-radius: 8px;
  color: #3654de;
  font-size: 0.85rem;
  font-weight: 600;
  text-decoration: none;
  transition: all 0.2s ease;
  cursor: pointer;
}
.btn-edit-info:hover {
  background: #f0f3fa;
  border-color: #3654de;
}
.financing-results-grid {
  display: grid;
  grid-template-columns: repeat(auto-fit, minmax(280px, 1fr));
  gap: 20px;
  margin-bottom: 48px;
}
.financing-option-card {
  position: relative;
  overflow: hidden;
  background: #ffffff;
  border-radius: 14px;
  border: 1px solid #dde5f2;
  padding: 14px 18px 16px;
  transition: transform 0.2s ease, box-shadow 0.2s ease;
}
.financing-option-card::before {
  content: "";
  position: absolute;
  top: 0;
  left: 0;
  right: 0;
  height: 88px;
  background: linear-gradient(180deg, rgba(54, 84, 222, 0.08) 0%, rgba(54, 84, 222, 0.03) 65%, rgba(255, 255, 255, 0) 100%);
…
  align-items: center;
  gap: 10px;
  font-family: var(--logiweb-block-subtitle-font-family);
  font-weight: var(--logiweb-block-subtitle-font-weight);
  font-size: var(--logiweb-block-text-size-md);
}
.ohio-trusted-hero .ohio-hero-phone {
  height: 52px;
  padding: 0 16px;
  border-radius: 999px;
  border: 1px solid rgba(133, 151, 197, 0.26);
  background: rgba(13, 33, 75, 0.6);
  color: var(--logiweb-block-text-color-inverse);
  text-decoration: none;
  display: inline-flex;
  align-items: center;
  gap: 10px;
  font-family: var(--logiweb-block-text-font-family);
  font-size: var(--logiweb-block-text-size-sm);
  font-weight: var(--logiweb-block-text-font-weight);
}
.ohio-trusted-hero .ohio-hero-stats {
  margin-top: 40px;
  display: flex;
  gap: 34px;
  align-items: flex-start;
}
.ohio-trusted-hero .ohio-hero-stat strong {
  display: block;
  color: var(--logiweb-block-title-color-inverse);
  font-size: 2.45rem;
  line-height: 1;
  font-weight: var(--logiweb-block-title-font-weight-strong);
}
.ohio-trusted-hero .ohio-hero-stat span {
  margin-top: 6px;
  display: block;
  color: var(--logiweb-block-text-color-inverse);
  font-family: var(--logiweb-block-text-font-family);
  font-size: var(--logiweb-block-text-size-sm);
  font-weight: var(--logiweb-block-text-font-weight);
}
@media (max-width: 1180px) {
  .ohio-trusted-hero .ohio-trusted-hero-inner {
    grid-template-columns: 1fr;
  }
  .ohio-trusted-hero .ohio-trusted-hero-mosaic {
    min-height: 520px;
  }
  .ohio-trusted-hero .ohio-trusted-hero-content {
    padding: 56px 24px 52px;
  }
  .ohio-trusted-hero .ohio-hero-description {
    max-width: 100%;
    font-size: 1.06rem;
  }
}
@media (max-width: 720px) {
  .ohio-trusted-hero .ohio-trusted-hero-mosaic {
    min-height: 440px;
  }
  .ohio-trusted-hero .ohio-hero-title {
    font-size: 2.15rem;
    line-height: 1.02;
  }
  .ohio-trusted-hero .ohio-hero-stats {
    gap: 16px;
    flex-wrap: wrap;
  }
  .ohio-trusted-hero .ohio-hero-stat strong {
    font-size: 1.8rem;
  }
  .ohio-trusted-hero .ohio-hero-cta,
  .ohio-trusted-hero .ohio-hero-phone {
    width: 100%;
    justify-content: center;
  }
}
/* ============================================================
   BLOCK-70 – OHIO COVERAGE MAP + SERVICES
   ============================================================ */
.ohio-coverage-block {
  max-width: 80rem;
  width: 100%;
  margin: 0 auto;
  padding: 2rem;
  color: #162743;
}
.ohio-coverage-block .ohio-coverage-header {
  max-width: 760px;
  margin: 0 auto;
  text-align: center;
}
.ohio-coverage-block .ohio-coverage-badge {
  margin: 0;
  display: inline-flex;
  align-items: center;
  gap: 8px;
  border-radius: 999px;
  background: #ecf2ff;
  color: var(--logiweb-block-subtitle-color);
  border: 1px solid #dce6ff;
  padding: 7px 14px;
  font-family: var(--logiweb-block-subtitle-font-family);
  font-size: var(--logiweb-block-subtitle-size);
  font-weight: var(--logiweb-block-subtitle-font-weight);
}
.ohio-coverage-block .ohio-coverage-title {
  margin: 14px 0 0;
  color: var(--logiweb-block-title-color);
  font-family: var(--logiweb-block-title-font-family);
  font-size: var(--logiweb-block-title-size-section);
  line-height: 1.12;
  font-weight: var(--logiweb-block-title-font-weight-strong);
}
.ohio-coverage-block .ohio-coverage-title span {
  color: var(--logiweb-block-title-highlight-color);
}
.ohio-coverage-block .ohio-coverage-description {
  margin: 12px auto 0;
  max-width: 690px;
  color: var(--logiweb-block-text-color);
  font-family: var(--logiweb-block-text-font-family);
  font-size: var(--logiweb-block-text-size-md);
  font-weight: var(--logiweb-block-text-font-weight);
  line-height: 1.45;
}
.ohio-coverage-block .ohio-coverage-body {
  width: 100%;
  margin-top: 38px;
  display: grid;
  grid-template-columns: minmax(420px, 1.5fr) minmax(340px, 1fr);
  gap: 28px;
  align-items: stretch;
}
.ohio-coverage-block .ohio-coverage-map-card,
.ohio-coverage-block .ohio-coverage-services-card {
  border-radius: 16px;
  border: 1px solid #dbe4f2;
  background: var(--logiweb-block-card-background);
  box-shadow: 0 8px 25px rgba(17, 40, 79, 0.06);
}
.ohio-coverage-block .ohio-coverage-map-card {
  padding: 22px 24px 18px;
}
.ohio-coverage-block .ohio-coverage-map {
  position: relative;
  height: 100%;
  border-radius: 12px;
  background: linear-gradient(180deg, #eff4fb 0%, #e7edf7 100%);
  border: 1px solid #d7dfef;
  background-repeat: no-repeat;
  background-size: cover;
  background-position: center;
}
.ohio-coverage-block .ohio-city {
  position: absolute;
  color: #39557f;
  font-size: 0.74rem;
  font-weight: 700;
  letter-spacing: 0.01em;
  transform: translate(-50%, -50%);
}
.ohio-coverage-block .ohio-city::before {
  display: none;
}
.ohio-coverage-block .ohio-city--toledo {
  top: 12%;
  left: 37%;
}
.ohio-coverage-block .ohio-city--cleveland {
  top: 18%;
  left: 72%;
}
.ohio-coverage-block .ohio-city--columbus {
  top: 53%;
  left: 48%;
}
.ohio-coverage-block .ohio-city--dayton {
  top: 59%;
  left: 27%;
}
.ohio-coverage-block .ohio-city--cincinnati {
  top: 73%;
  left: 23%;
}
.ohio-coverage-block .ohio-coverage-map-footer {
  margin-top: 12px;
}
.ohio-coverage-block .ohio-coverage-map-footer p {
  margin: 0;
  text-align: center;
  color: #9aabca;
  font-size: 0.9rem;
}
.ohio-coverage-block .ohio-coverage-map-footer p strong {
  color: #4b70ea;
}
.ohio-coverage-block .ohio-coverage-legend {
  margin-top: 10px;
  display: flex;
  justify-content: center;
  gap: 18px;
  flex-wrap: wrap;
}
.ohio-coverage-block .ohio-coverage-legend span {
  display: inline-flex;
  align-items: center;
  gap: 7px;
  font-size: 0.86rem;
  color: #8ca0c2;
}
.ohio-coverage-block .ohio-coverage-legend .dot {
  width: 11px;
  height: 11px;
  border-radius: 3px;
  display: inline-block;
}
.ohio-coverage-block .ohio-coverage-legend .dot--area {
  background: #d3e2ff;
}
.ohio-coverage-block .ohio-coverage-legend .dot--selected {
  background: #5f83ea;
}
.ohio-coverage-block .ohio-coverage-legend .dot--city {
  background: #2f456c;
  border-radius: 999px;
}
.ohio-coverage-block .ohio-coverage-services-card {
  padding: 2rem;
}
.ohio-coverage-block .ohio-coverage-services-card h3 {
  margin: 0;
  color: var(--logiweb-block-title-color);
  font-family: var(--logiweb-block-title-font-family);
  font-size: var(--logiweb-block-text-size-lg);
  line-height: 1.2;
  font-weight: var(--logiweb-block-title-font-weight-strong);
}
.ohio-coverage-block .ohio-coverage-services-card ul {
  margin: 18px 0 0;
  padding: 0;
  list-style: none;
  display: grid;
  gap: 12px;
}
.ohio-coverage-block .ohio-coverage-services-card li {
  display: flex;
  align-items: flex-start;
  gap: 10px;
  color: var(--logiweb-block-text-color);
  font-family: var(--logiweb-block-text-font-family);
  font-size: var(--logiweb-block-text-size-sm);
  font-weight: var(--logiweb-block-text-font-weight);
  line-height: 1.35;
}
.ohio-coverage-block .ohio-coverage-services-card li i {
  margin-top: 2px;
  color: #8fd47a;
}
.ohio-coverage-block .ohio-coverage-cta {
  margin-top: 18px;
  padding-top: 16px;
  border-top: 1px solid #e5ebf6;
  color: var(--logiweb-block-title-highlight-color);
  font-family: var(--logiweb-block-subtitle-font-family);
  font-size: var(--logiweb-block-text-size-sm);
  font-weight: var(--logiweb-block-subtitle-font-weight);
  text-decoration: none;
  display: inline-flex;
  align-items: center;
  gap: 9px;
}
@media (max-width: 1060px) {
  .ohio-coverage-block .ohio-coverage-body {
    grid-template-columns: 1fr;
    gap: 20px;
  }
  .ohio-coverage-block .ohio-coverage-map {
    height: 360px;
  }
}
@media (max-width: 720px) {
  .ohio-coverage-block {
    padding: 48px 16px;
  }
  .ohio-coverage-block .ohio-coverage-map-card,
  .ohio-coverage-block .ohio-coverage-services-card {
    border-radius: 12px;
  }
  .ohio-coverage-block .ohio-coverage-map {
    height: 300px;
  }
  .ohio-coverage-block .ohio-coverage-description {
    font-size: var(--logiweb-block-text-size-sm);
  }
  .ohio-coverage-block .ohio-coverage-services-card {
    padding: 18px 16px;
  }
  .ohio-coverage-block .ohio-coverage-services-card li {
    font-size: var(--logiweb-block-text-size-sm);
  }
}
/* ============================================================
   BLOCK-71 – RECENT WORK SLIDER
   ============================================================ */
.recent-work-slider-block {
  max-width: 1280px;
  margin: 0;
  padding: 70px 24px;
  text-align: left;
}
.recent-work-slider-block .recent-work-slider-header {
  display: flex;
  align-items: flex-start;
  justify-content: flex-start;
  gap: 16px;
  margin-bottom: 22px;
  text-align: left;
}
.recent-work-slider-block .recent-work-slider-badge {
  margin: 0;
  display: inline-flex;
  align-items: center;
  gap: 8px;
  border-radius: 999px;
  background: var(--logiweb-block-muted-background);
  color: var(--logiweb-block-accent-orange);
  border: 1px solid #ffe1bc;
  padding: 7px 14px;
  font-family: var(--logiweb-block-subtitle-font-family);
  font-size: var(--logiweb-block-subtitle-size-sm);
  font-weight: var(--logiweb-block-subtitle-font-weight);
}
.recent-work-slider-block .recent-work-slider-title {
  margin: 14px 0 0;
  color: var(--logiweb-block-title-color);
  font-family: var(--logiweb-block-title-font-family);
  font-size: var(--logiweb-block-title-size-section);
  line-height: 1.18;
  font-weight: var(--logiweb-block-title-font-weight);
}
.recent-work-slider-block .recent-work-slider-track {
  display: grid;
  grid-template-columns: repeat(3, minmax(0, 1fr));
  gap: 18px;
}
.recent-work-slider-block .recent-work-slider-card {
  background: var(--logiweb-block-card-background);
  border: 1px solid #dbe3f0;
  border-radius: 16px;
  overflow: hidden;
  box-shadow: 0 6px 20px rgba(18, 36, 66, 0.06);
  min-width: 0;
}
.recent-work-slider-block .recent-work-slider-image {
  height: 220px;
  background-size: cover;
  background-position: center;
  background-color: var(--logiweb-block-muted-background);
}
.recent-work-slider-block .recent-work-slider-content {
  padding: 16px 18px 18px;
  text-align: left;
}
.recent-work-slider-block .recent-work-slider-tag {
  margin: 0;
  color: var(--logiweb-block-title-highlight-color);
  font-family: var(--logiweb-block-subtitle-font-family);
  font-size: var(--logiweb-block-subtitle-size-sm);
  font-weight: var(--logiweb-block-subtitle-font-weight);
  line-height: 1.25;
}
.recent-work-slider-block .recent-work-slider-card-title {
  margin: 6px 0 0;
  color: var(--logiweb-block-title-color);
  font-family: var(--logiweb-block-title-font-family);
  font-size: var(--logiweb-block-title-size-small);
  line-height: 1.2;
  font-weight: var(--logiweb-block-title-font-weight);
}
.recent-work-slider-block .recent-work-slider-description {
  margin: 10px 0 0;
  color: var(--logiweb-block-text-color);
  font-family: var(--logiweb-block-text-font-family);
  font-size: var(--logiweb-block-text-size-sm);
  font-weight: var(--logiweb-block-text-font-weight);
  line-height: 1.42;
}
@media (max-width: 800px) {
  .recent-work-slider-block .recent-work-slider-header {
    margin-bottom: 14px;
  }
  .recent-work-slider-block .recent-work-slider-track {
    grid-template-columns: repeat(2, minmax(0, 1fr));
  }
  .recent-work-slider-block .recent-work-slider-title {
    font-size: var(--logiweb-block-title-size-card);
  }
  .recent-work-slider-block .recent-work-slider-card-title {
    font-size: var(--logiweb-block-title-size-small);
  }
  .recent-work-slider-block .recent-work-slider-description {
    font-size: var(--logiweb-block-text-size-sm);
  }
}
@media (max-width: 560px) {
  .recent-work-slider-block .recent-work-slider-track {
    grid-template-columns: minmax(0, 1fr);
  }
}
/* ============================================================
   BLOCK-72 – FLEET COVERAGE HERO
   ============================================================ */
.fleet-coverage-hero {
  position: relative;
  overflow: hidden;
  background: var(--logiweb-block-muted-background);
  color: var(--logiweb-block-title-color-inverse);
  width: 100%;
}
.fleet-coverage-hero .fleet-coverage-hero-media,
.fleet-coverage-hero .fleet-coverage-hero-overlay {
  position: absolute;
  inset: 0;
}
.fleet-coverage-hero .fleet-coverage-hero-media {
  background-position: center;
  background-size: cover;
  background-repeat: no-repeat;
}
.fleet-coverage-hero .fleet-coverage-hero-overlay {
  background: linear-gradient(180deg, rgba(9, 18, 37, 0.7) 0%, rgba(10, 19, 39, 0.74) 100%), rgba(12, 22, 43, 0.2);
}
.fleet-coverage-hero .fleet-coverage-hero-inner {
  position: relative;
  z-index: 1;
  max-width: 80rem;
  width: 100%;
  margin: 0 auto;
  padding: 74px 2rem 72px;
  text-align: center;
}
.fleet-coverage-hero .fleet-coverage-hero-badge {
  margin: 0;
  display: inline-flex;
  align-items: center;
  gap: 8px;
  padding: 8px 16px;
  border-radius: 999px;
  border: 1px solid rgba(189, 202, 223, 0.24);
  background: rgba(69, 83, 109, 0.45);
  color: var(--logiweb-block-subtitle-color-inverse);
  font-family: var(--logiweb-block-subtitle-font-family);
  font-size: var(--logiweb-block-subtitle-size);
  font-weight: var(--logiweb-block-subtitle-font-weight);
}
.fleet-coverage-hero .fleet-coverage-hero-title {
  margin: 20px auto 0;
  max-width: 760px;
  color: var(--logiweb-block-title-color-inverse);
  font-family: var(--logiweb-block-title-font-family);
  font-size: var(--logiweb-block-title-size-section);
  font-weight: var(--logiweb-block-title-font-weight-strong);
  line-height: 1.08;
}
.fleet-coverage-hero .fleet-coverage-hero-title span {
  color: var(--logiweb-block-title-highlight-color-inverse);
}
.fleet-coverage-hero .fleet-coverage-hero-description {
  margin: 10px auto 0;
  max-width: 680px;
  color: var(--logiweb-block-text-color-inverse);
  font-family: var(--logiweb-block-text-font-family);
  font-size: var(--logiweb-block-description);
  font-weight: var(--logiweb-block-text-font-weight);
  line-height: 1.5;
}
.fleet-coverage-hero .fleet-coverage-hero-stats {
  margin-top: 40px;
  display: grid;
  grid-template-columns: repeat(4, minmax(0, 1fr));
  gap: 22px;
}
.fleet-coverage-hero .fleet-coverage-hero-stat-card {
  padding: 22px 18px;
  border-radius: 22px;
  border: 1px solid rgba(196, 206, 220, 0.2);
  background: rgba(241, 245, 251, 0.12);
  box-shadow: inset 0 1px 0 rgba(255, 255, 255, 0.05);
  backdrop-filter: blur(8px);
}
.fleet-coverage-hero .fleet-coverage-hero-stat-card strong,
.fleet-coverage-hero .fleet-coverage-hero-stat-card span {
  display: block;
}
.fleet-coverage-hero .fleet-coverage-hero-stat-card strong {
  margin-top: 12px;
  color: var(--logiweb-block-title-color-inverse);
  font-family: var(--logiweb-block-title-font-family);
  font-size: var(--logiweb-block-text-size-xlg);
  font-weight: var(--logiweb-block-title-font-weight);
  line-height: 1;
}
.fleet-coverage-hero .fleet-coverage-hero-stat-card span {
  margin-top: 6px;
  color: var(--logiweb-block-text-color-inverse);
  font-family: var(--logiweb-block-text-font-family);
  font-size: var(--logiweb-block-text-size-sm);
  font-weight: var(--logiweb-block-text-font-weight);
  line-height: 1.35;
}
.fleet-coverage-hero .fleet-coverage-hero-stat-icon {
  color: var(--logiweb-block-title-highlight-color-inverse);
  font-size: 1.9rem;
}
@media (max-width: 1024px) {
  .fleet-coverage-hero .fleet-coverage-hero-stats {
    grid-template-columns: repeat(2, minmax(0, 1fr));
  }
  .fleet-coverage-hero .fleet-coverage-hero-title {
    font-size: clamp(2.2rem, 5vw, 3.35rem);
  }
}
@media (max-width: 640px) {
  .fleet-coverage-hero .fleet-coverage-hero-inner {
    padding: 54px 16px;
  }
  .fleet-coverage-hero .fleet-coverage-hero-stats {
    grid-template-columns: minmax(0, 1fr);
    gap: 16px;
  }
  .fleet-coverage-hero .fleet-coverage-hero-description {
    font-size: var(--logiweb-block-text-size-sm);
  }
}
/* ============================================================
   BLOCK-73 – OHIO TESTIMONIALS PROOF
   ============================================================ */
.ohio-testimonials-proof {
  background: var(--logiweb-block-card-background);
  color: var(--logiweb-block-title-color);
}
.ohio-testimonials-proof .ohio-testimonials-proof-inner {
  max-width: 80rem;
  width: 100%;
  margin: 0 auto;
  padding: 78px 2rem;
  text-align: center;
}
.ohio-testimonials-proof .ohio-testimonials-proof-badge {
  margin: 0;
  display: inline-flex;
  align-items: center;
  gap: 8px;
  padding: 8px 16px;
  border-radius: 999px;
  background: #eef6eb;
  color: var(--logiweb-block-accent-green);
  font-family: var(--logiweb-block-subtitle-font-family);
  font-size: var(--logiweb-block-subtitle-size);
  font-weight: var(--logiweb-block-subtitle-font-weight);
}
.ohio-testimonials-proof .ohio-testimonials-proof-title {
  margin: 18px 0 0;
  color: var(--logiweb-block-title-color);
  font-family: var(--logiweb-block-title-font-family);
  font-size: var(--logiweb-block-title-size-section);
  font-weight: var(--logiweb-block-title-font-weight-strong);
  line-height: 1.12;
}
.ohio-testimonials-proof .ohio-testimonials-proof-title span {
  color: var(--logiweb-block-accent-green);
}
.ohio-testimonials-proof .ohio-testimonials-proof-grid {
  margin-top: 44px;
  display: grid;
  grid-template-columns: repeat(3, minmax(0, 1fr));
  gap: 20px;
  text-align: left;
}
.ohio-testimonials-proof .ohio-testimonials-proof-card {
  background: var(--logiweb-block-card-background);
  border: 1px solid #e6ebf3;
  border-radius: 18px;
  padding: 22px 24px;
  box-shadow: 0 4px 14px rgba(18, 36, 66, 0.04);
}
.ohio-testimonials-proof .ohio-testimonials-proof-card-head {
  display: flex;
  align-items: center;
  gap: 12px;
}
.ohio-testimonials-proof .ohio-testimonials-proof-card-head h3 {
  margin: 0;
  color: var(--logiweb-block-title-color);
  font-family: var(--logiweb-block-title-font-family);
  font-size: var(--logiweb-block-text-size-sm);
  font-weight: var(--logiweb-block-title-font-weight);
  line-height: 1.2;
}
.ohio-testimonials-proof .ohio-testimonials-proof-card-head p {
  margin: 4px 0 0;
  color: var(--logiweb-block-text-color);
  font-family: var(--logiweb-block-text-font-family);
  font-size: var(--logiweb-block-text-size-sm);
  font-weight: var(--logiweb-block-text-font-weight);
}
.ohio-testimonials-proof .ohio-testimonials-proof-avatar {
  width: 40px;
  height: 40px;
  border-radius: 999px;
  display: flex;
  align-items: center;
  justify-content: center;
  background: var(--logiweb-btn-primary-bg);
  color: #ffffff;
  font-family: var(--logiweb-block-subtitle-font-family);
  font-weight: var(--logiweb-block-subtitle-font-weight);
  font-size: var(--logiweb-block-subtitle-size);
}
.ohio-testimonials-proof .ohio-testimonials-proof-meta {
  margin-top: 16px;
  display: flex;
  align-items: center;
  gap: 10px;
  flex-wrap: wrap;
}
.ohio-testimonials-proof .ohio-testimonials-proof-stars {
  display: inline-flex;
  gap: 6px;
  color: #f1c933;
  font-size: var(--logiweb-block-subtitle-size);
}
.ohio-testimonials-proof .ohio-testimonials-proof-service {
  display: inline-flex;
  align-items: center;
  min-height: 24px;
  padding: 0 10px;
  border-radius: 999px;
  background: #edf7ea;
  color: var(--logiweb-block-accent-green);
  font-family: var(--logiweb-block-subtitle-font-family);
  font-size: var(--logiweb-block-subtitle-size-xs);
  font-weight: var(--logiweb-block-text-font-weight);
}
.ohio-testimonials-proof .ohio-testimonials-proof-quote {
  margin: 14px 0 0;
  color: var(--logiweb-block-text-color);
  font-family: var(--logiweb-block-text-font-family);
  font-size: var(--logiweb-block-text-size-sm);
  font-weight: var(--logiweb-block-text-font-weight);
  line-height: 1.65;
}
@media (max-width: 1024px) {
  .ohio-testimonials-proof .ohio-testimonials-proof-grid {
    grid-template-columns: repeat(2, minmax(0, 1fr));
  }
}
@media (max-width: 680px) {
  .ohio-testimonials-proof .ohio-testimonials-proof-inner {
    padding: 56px 16px;
  }
  .ohio-testimonials-proof .ohio-testimonials-proof-grid {
    grid-template-columns: minmax(0, 1fr);
    gap: 16px;
  }
}
/* ============================================================
   BLOCK-74 - KENTUCKY COVERAGE REGIONS GRID
   ============================================================ */
.kentucky-coverage-grid-block {
  width: 100%;
  background: var(--logiweb-block-muted-background);
  padding: clamp(48px, 6vw, 84px) clamp(14px, 3vw, 24px);
}
.kentucky-coverage-grid-block .kentucky-coverage-grid-inner {
  max-width: 980px;
  margin: 0 auto;
}
.kentucky-coverage-grid-block .kentucky-coverage-grid-header {
  text-align: center;
  max-width: 620px;
  margin: 0 auto;
}
.kentucky-coverage-grid-block .kentucky-coverage-grid-badge {
  margin: 0;
  display: inline-flex;
  align-items: center;
  gap: 0.45rem;
  padding: 0.38rem 0.72rem;
  border-radius: var(--rounded-full);
  background: var(--logiweb-block-accent-blue-soft);
  color: var(--logiweb-block-subtitle-color);
  font-family: var(--logiweb-block-subtitle-font-family);
  font-size: var(--logiweb-block-subtitle-size-sm);
  font-weight: var(--logiweb-block-subtitle-font-weight);
}
.kentucky-coverage-grid-block .kentucky-coverage-grid-title {
  margin: 0.8rem 0 0;
  color: var(--logiweb-block-title-color);
  font-family: var(--logiweb-block-title-font-family);
  font-size: var(--logiweb-block-title-size-section);
  font-weight: var(--logiweb-block-title-font-weight-strong);
  line-height: 1.12;
}
.kentucky-coverage-grid-block .kentucky-coverage-grid-title span {
  color: var(--logiweb-block-title-highlight-color);
}
.kentucky-coverage-grid-block .kentucky-coverage-grid-description {
  margin: 0.62rem auto 0;
  color: var(--logiweb-block-text-color);
  font-family: var(--logiweb-block-text-font-family);
  font-size: var(--logiweb-block-text-size-md);
  line-height: 1.6;
}
.kentucky-coverage-grid-block .kentucky-coverage-grid-cards {
  margin-top: 2rem;
  display: grid;
  grid-template-columns: repeat(2, minmax(0, 1fr));
  gap: 1rem;
}
.kentucky-coverage-grid-block .kentucky-coverage-grid-card {
  background: var(--logiweb-block-card-background);
  border: 1px solid var(--logiweb-block-surface-border);
  border-radius: 14px;
  overflow: hidden;
  box-shadow: 0 6px 16px rgba(18, 35, 64, 0.06);
}
.kentucky-coverage-grid-block .kentucky-coverage-grid-card-media {
  min-height: 160px;
  background-color: var(--logiweb-block-placeholder-background);
  background-position: center;
  background-size: cover;
  background-repeat: no-repeat;
  position: relative;
  display: flex;
  align-items: flex-end;
  padding: 0.9rem;
}
.kentucky-coverage-grid-block .kentucky-coverage-grid-card-media::after {
  content: "";
  position: absolute;
  inset: 0;
  background: linear-gradient(180deg, rgba(10, 18, 32, 0.02) 30%, rgba(10, 18, 32, 0.62) 100%);
}
.kentucky-coverage-grid-block .kentucky-coverage-grid-card-media h3 {
  position: relative;
  z-index: 1;
  margin: 0;
  color: var(--logiweb-block-title-color-inverse);
  font-family: var(--logiweb-block-title-font-family);
  font-size: var(--logiweb-block-title-size-small);
  font-weight: var(--logiweb-block-title-font-weight-strong);
  line-height: 1.2;
}
.kentucky-coverage-grid-block .kentucky-coverage-grid-card-body {
  padding: 0.9rem 0.95rem 1rem;
}
.kentucky-coverage-grid-block .kentucky-coverage-grid-card-body p {
  margin: 0;
  color: var(--logiweb-block-text-color);
  font-family: var(--logiweb-block-text-font-family);
  font-size: var(--logiweb-block-text-size-sm);
  line-height: 1.55;
}
.kentucky-coverage-grid-block .kentucky-coverage-grid-tags {
  margin-top: 0.72rem;
  display: flex;
  flex-wrap: wrap;
  gap: 0.42rem;
}
.kentucky-coverage-grid-block .kentucky-coverage-grid-tags span {
  display: inline-flex;
  align-items: center;
  min-height: 24px;
  padding: 0 0.55rem;
  border-radius: var(--rounded-full);
  background: var(--logiweb-block-accent-blue-soft);
  color: var(--logiweb-block-subtitle-color);
  font-size: var(--logiweb-block-subtitle-size-sm);
  font-weight: var(--logiweb-block-subtitle-font-weight);
  line-height: 1;
}
@media (max-width: 760px) {
  .kentucky-coverage-grid-block .kentucky-coverage-grid-cards {
    grid-template-columns: minmax(0, 1fr);
  }
}
/* ============================================================
   BLOCK-75 - SERVICES EDITORIAL GRID
   ============================================================ */
.services-editorial-grid-block {
  --services-editorial-max-width: 1180px;
  --services-editorial-card-radius: 18px;
  --services-editorial-card-padding: 18px;
  --services-editorial-card-gap: 18px;
  --services-editorial-image-height: clamp(152px, 16vw, 188px);
  --services-editorial-number-size: 2.2rem;
  --services-editorial-link-color: var(--logiweb-block-title-highlight-color);
  width: 100%;
  padding: clamp(54px, 6vw, 92px) clamp(16px, 3vw, 28px);
  background: linear-gradient(180deg, color-mix(in srgb, var(--logiweb-block-card-background) 68%, var(--logiweb-block-muted-background) 32%) 0%, var(--logiweb-block-card-background) 100%);
}
.services-editorial-grid-block .services-editorial-grid-inner {
  max-width: var(--services-editorial-max-width);
  margin: 0 auto;
}
.services-editorial-grid-block .services-editorial-grid-header {
  max-width: 760px;
  margin: 0 auto;
  text-align: center;
}
.services-editorial-grid-block .services-editorial-grid-eyebrow {
  margin: 0;
  color: var(--logiweb-block-subtitle-color);
  font-family: var(--logiweb-block-subtitle-font-family);
  font-size: var(--logiweb-block-subtitle-size-sm);
  font-weight: var(--logiweb-block-subtitle-font-weight);
  letter-spacing: 0.18em;
  line-height: 1.2;
  text-transform: uppercase;
}
.services-editorial-grid-block .services-editorial-grid-title {
  margin: 0.72rem 0 0;
  color: var(--logiweb-block-title-color);
  font-family: var(--logiweb-block-title-font-family);
  font-size: var(--logiweb-block-title-size-section);
  font-weight: var(--logiweb-block-title-font-weight-strong);
  line-height: 1.08;
}
.services-editorial-grid-block .services-editorial-grid-description {
  margin: 0.9rem auto 0;
  max-width: 620px;
  color: var(--logiweb-block-text-color);
  font-family: var(--logiweb-block-text-font-family);
  font-size: var(--logiweb-block-text-size-md);
  line-height: 1.58;
}
.services-editorial-grid-block .services-editorial-grid-cards {
  margin-top: clamp(30px, 4vw, 44px);
  display: grid;
  grid-template-columns: repeat(4, minmax(0, 1fr));
  gap: clamp(16px, 1.7vw, 22px);
  align-items: stretch;
}
.services-editorial-grid-block .services-editorial-card {
  position: relative;
  display: flex;
  flex-direction: column;
  min-width: 0;
  border: 1px solid var(--logiweb-block-surface-border);
  border-radius: var(--services-editorial-card-radius);
  background: var(--logiweb-block-card-background);
  box-shadow: 0 8px 18px rgba(18, 35, 64, 0.08);
  overflow: hidden;
  transition: transform 0.28s ease, box-shadow 0.28s ease, border-color 0.28s ease;
}
.services-editorial-grid-block .services-editorial-card:hover {
  transform: translateY(-8px);
  border-color: color-mix(in srgb, var(--logiweb-block-title-highlight-color) 28%, var(--logiweb-block-surface-border) 72%);
  box-shadow: var(--logiweb-block-surface-shadow);
}
.services-editorial-grid-block .services-editorial-card-media-wrap {
  position: relative;
  padding: 14px 14px 0;
}
.services-editorial-grid-block .services-editorial-card-badge {
  position: absolute;
  top: 26px;
  left: 26px;
  z-index: 2;
  width: 34px;
  height: 34px;
  display: inline-flex;
  align-items: center;
  justify-content: center;
  border-radius: var(--rounded-full);
  background: var(--logiweb-btn-primary-bg);
  color: var(--logiweb-btn-primary-text);
  font-family: var(--logiweb-block-title-font-family);
  font-size: 0.94rem;
  font-weight: 700;
  line-height: 1;
  box-shadow: 0 10px 20px rgba(58, 131, 246, 0.26);
  transition: transform 0.28s ease, box-shadow 0.28s ease, background 0.28s ease;
}
.services-editorial-grid-block .services-editorial-card:hover .services-editorial-card-badge {
  transform: scale(1.06);
  background: var(--logiweb-btn-primary-bg-hover);
  box-shadow: 0 14px 24px rgba(46, 115, 223, 0.28);
}
.services-editorial-grid-block .services-editorial-card-media {
  height: var(--services-editorial-image-height);
  border-radius: calc(var(--services-editorial-card-radius) - 4px);
  overflow: hidden;
  background: var(--logiweb-block-placeholder-background);
}
.services-editorial-grid-block .services-editorial-card-media img {
  width: 100%;
  height: 100%;
  display: block;
  -o-object-fit: cover;
     object-fit: cover;
  border-radius: 0;
  transition: transform 0.45s ease, filter 0.45s ease;
}
.services-editorial-grid-block .services-editorial-card:hover .services-editorial-card-media img {
  transform: scale(1.05);
  filter: saturate(1.04);
}
.services-editorial-grid-block .services-editorial-card-body {
  display: flex;
  flex: 1 1 auto;
  flex-direction: column;
  gap: 0.74rem;
  padding: 1.2rem var(--services-editorial-card-padding) 1.35rem;
}
.services-editorial-grid-block .services-editorial-card-title {
  margin: 0;
  color: var(--logiweb-block-title-color);
  font-family: var(--logiweb-block-title-font-family);
  font-size: var(--logiweb-block-text-size-md);
  font-weight: var(--logiweb-block-title-font-weight-strong);
  line-height: 1.24;
}
.services-editorial-grid-block .services-editorial-card-kicker {
  margin: -0.1rem 0 0;
  color: var(--services-editorial-link-color);
  font-family: var(--logiweb-block-text-font-family);
  font-size: var(--logiweb-block-text-size-sm);
  font-weight: 600;
  line-height: 1.4;
}
.services-editorial-grid-block .services-editorial-card-description {
  margin: 0;
  color: var(--logiweb-block-text-color);
  font-family: var(--logiweb-block-text-font-family);
  font-size: var(--logiweb-block-text-size-sm);
  line-height: 1.62;
}
.services-editorial-grid-block .services-editorial-card-features {
  margin: 0.1rem 0 0;
  padding: 0;
  list-style: none;
  display: grid;
  gap: 0.48rem;
}
.services-editorial-grid-block .services-editorial-card-features li {
  position: relative;
  padding-left: 1.35rem;
  color: color-mix(in srgb, var(--logiweb-block-text-color) 88%, var(--logiweb-block-title-color) 12%);
  font-family: var(--logiweb-block-text-font-family);
  font-size: var(--logiweb-block-text-size-sm);
  line-height: 1.45;
}
.services-editorial-grid-block .services-editorial-card-features li::before {
  content: "✓";
  position: absolute;
  top: 0.02rem;
  left: 0;
  color: var(--services-editorial-link-color);
  font-size: 0.86rem;
  font-weight: 700;
}
.services-editorial-grid-block .services-editorial-card-link {
  margin-top: auto;
  display: inline-flex;
  align-items: center;
  gap: 0.5rem;
  color: var(--services-editorial-link-color);
  text-decoration: none;
  font-family: var(--logiweb-block-text-font-family);
  font-size: var(--logiweb-block-text-size-sm);
  font-weight: 600;
  line-height: 1.2;
  transition: gap 0.22s ease, color 0.22s ease, transform 0.22s ease;
}
.services-editorial-grid-block .services-editorial-card-link:hover {
  gap: 0.72rem;
  color: var(--logiweb-btn-primary-bg-hover);
  transform: translateX(2px);
}
.services-editorial-grid-block .services-editorial-grid-footer {
  margin-top: clamp(28px, 3.4vw, 40px);
  display: flex;
  flex-direction: column;
  align-items: center;
  gap: 0.95rem;
  text-align: center;
}
.services-editorial-grid-block .services-editorial-grid-support {
  margin: 0;
  color: var(--logiweb-block-text-color);
  font-family: var(--logiweb-block-text-font-family);
  font-size: 0.98rem;
  line-height: 1.5;
}
.services-editorial-grid-block .services-editorial-grid-button {
  min-height: 50px;
  gap: 0.6rem;
  padding: 0 1.3rem;
  border-radius: var(--rounded-full);
  font-family: var(--logiweb-block-text-font-family);
  font-size: 0.98rem;
  font-weight: 600;
  box-shadow: 0 14px 28px rgba(58, 131, 246, 0.18);
  transition: transform 0.24s ease, box-shadow 0.24s ease, background-color 0.24s ease;
}
.services-editorial-grid-block .services-editorial-grid-button:hover {
  transform: translateY(-2px);
  box-shadow: 0 18px 30px rgba(46, 115, 223, 0.22);
}
@media (max-width: 1180px) {
  .services-editorial-grid-block .services-editorial-grid-cards {
    grid-template-columns: repeat(2, minmax(0, 1fr));
  }
}
@media (max-width: 767px) {
  .services-editorial-grid-block {
    padding-inline: 14px;
  }
  .services-editorial-grid-block .services-editorial-grid-title {
    font-size: var(--logiweb-block-title-size-section);
  }
  .services-editorial-grid-block .services-editorial-grid-description {
    font-size: var(--logiweb-block-text-size-sm);
  }
  .services-editorial-grid-block .services-editorial-grid-cards {
    grid-template-columns: minmax(0, 1fr);
  }
  .services-editorial-grid-block .services-editorial-card-title {
    font-size: var(--logiweb-block-title-size-section);
  }
  .services-editorial-grid-block .services-editorial-grid-button {
    width: 100%;
    max-width: 320px;
  }
}
.dnh-difference-block {
  width: 100%;
  padding: 5rem 1rem;
  background: #fff;
}
.dnh-difference-block .dnh-difference-inner {
  width: min(1100px, 92vw);
  margin: 0 auto;
  display: flex;
  flex-direction: column;
  gap: 3.5rem;
}
.dnh-difference-block .dnh-difference-header {
  display: flex;
  flex-direction: column;
  align-items: center;
  text-align: center;
  gap: 0.75rem;
}
.dnh-difference-block .dnh-difference-eyebrow {
  font-size: var(--logiweb-block-subtitle-size);
  font-weight: 700;
  letter-spacing: 0.18em;
  text-transform: uppercase;
  color: var(--logiweb-block-subtitle-color);
  font-family: var(--logiweb-block-subtitle-font-family);
}
.dnh-difference-block .dnh-difference-title {
  margin: 0;
  font-size: var(--logiweb-block-title-size-section);
  font-weight: var(--logiweb-block-title-font-weight);
  color: var(--logiweb-block-title-color);
  font-family: var(--logiweb-block-title-font-family);
  line-height: 1.15;
}
.dnh-difference-block .dnh-difference-highlight {
  color: var(--logiweb-block-title-highlight-color);
}
.dnh-difference-block .dnh-difference-desc {
  margin: 0;
  font-size: var(--logiweb-block-text-size-md);
  color: var(--logiweb-block-text-color);
  font-family: var(--logiweb-block-text-font-family);
  font-weight: var(--logiweb-block-text-font-weight);
  max-width: 58ch;
  line-height: 1.6;
}
.dnh-difference-block .dnh-difference-stats {
  display: grid;
  grid-template-columns: repeat(4, 1fr);
  gap: 2rem;
}
.dnh-difference-block .dnh-difference-stat {
  display: flex;
  flex-direction: column;
  align-items: flex-start;
  gap: 0.45rem;
  border: 1px solid var(--logiweb-block-surface-border);
  border-radius: 1.1rem;
  padding: 1.25rem;
}
.dnh-difference-block .dnh-difference-stat-icon {
  width: 2.8rem;
  height: 2.8rem;
  border-radius: 0.65rem;
  display: inline-flex;
  align-items: center;
  justify-content: center;
  color: #fff;
  font-size: 1.1rem;
  flex-shrink: 0;
  transition: transform 0.25s ease;
}
.dnh-difference-block .dnh-difference-stat-value {
  font-size: var(--logiweb-block-text-size-xlg);
  font-weight: 700;
  color: var(--logiweb-block-title-color);
  font-family: var(--logiweb-block-title-font-family);
  line-height: 1;
}
.dnh-difference-block .dnh-difference-stat-label {
  font-size: var(--logiweb-block-text-size-sm);
  color: var(--logiweb-block-text-color);
  font-family: var(--logiweb-block-text-font-family);
  font-weight: var(--logiweb-block-text-font-weight);
  line-height: 1.3;
}
.dnh-difference-block .dnh-difference-features {
  display: grid;
  grid-template-columns: repeat(2, 1fr);
  gap: 1.25rem;
}
.dnh-difference-block .dnh-difference-feature-card {
  border: 1px solid var(--logiweb-block-surface-border);
  border-radius: 1.1rem;
  padding: 1.5rem 1.6rem;
  display: flex;
  flex-direction: column;
  gap: 0.75rem;
  transition: box-shadow 0.25s ease, transform 0.25s ease, border-color 0.25s ease;
}
.dnh-difference-block .dnh-difference-feature-card:hover {
  transform: translateY(-4px);
  box-shadow: var(--logiweb-block-surface-shadow);
  border-color: color-mix(in srgb, var(--logiweb-block-title-highlight-color) 22%, var(--logiweb-block-surface-border) 78%);
}
.dnh-difference-block .dnh-difference-feature-top {
  display: flex;
  align-items: center;
  gap: 0.65rem;
  flex-wrap: wrap;
}
.dnh-difference-block .dnh-difference-feature-icon-wrap {
  width: 2rem;
  height: 2rem;
  border-radius: 0.5rem;
  background: var(--logiweb-block-accent-blue-soft);
  display: inline-flex;
  align-items: center;
  justify-content: center;
  color: var(--logiweb-block-subtitle-color);
  font-size: 0.9rem;
  flex-shrink: 0;
  transition: background 0.2s ease;
}
.dnh-difference-block .dnh-difference-feature-card:hover .dnh-difference-feature-icon-wrap {
  background: color-mix(in srgb, var(--logiweb-block-title-highlight-color) 16%, transparent 84%);
}
.dnh-difference-block .dnh-difference-feature-title {
  font-size: var(--logiweb-block-text-size-md);
  font-weight: 700;
  color: var(--logiweb-block-title-color);
  font-family: var(--logiweb-block-title-font-family);
  flex: 1;
}
.dnh-difference-block .dnh-difference-feature-badge {
  font-size: var(--logiweb-block-text-size-sm);
  font-weight: 600;
  border-radius: var(--rounded-full);
  padding: 0.22rem 0.72rem;
  white-space: nowrap;
  font-family: var(--logiweb-block-text-font-family);
  transition: filter 0.2s ease;
}
.dnh-difference-block .dnh-difference-feature-badge.dnh-badge--green {
  background: var(--logiweb-block-accent-green-soft);
  color: var(--logiweb-block-accent-green);
}
.dnh-difference-block .dnh-difference-feature-badge.dnh-badge--blue {
  background: var(--logiweb-block-accent-green-soft);
  color: var(--logiweb-block-accent-green);
}
.dnh-difference-block .dnh-difference-feature-card:hover .dnh-difference-feature-badge {
  filter: brightness(0.94);
}
.dnh-difference-block .dnh-difference-feature-desc {
  margin: 0;
  font-size: var(--logiweb-block-text-size-sm);
  color: var(--logiweb-block-text-color);
  font-family: var(--logiweb-block-text-font-family);
  font-weight: var(--logiweb-block-text-font-weight);
  line-height: 1.55;
}
.dnh-difference-block .dnh-difference-feature-desc a {
  color: var(--logiweb-block-subtitle-color);
}
.dnh-difference-block .dnh-difference-stat:hover .dnh-difference-stat-icon {
  transform: scale(1.08);
}
@media (max-width: 900px) {
  .dnh-difference-block .dnh-difference-stats {
    grid-template-columns: repeat(2, 1fr);
  }
}
@media (max-width: 640px) {
  .dnh-difference-block .dnh-difference-features {
    grid-template-columns: 1fr;
  }
  .dnh-difference-block .dnh-difference-stats {
    grid-template-columns: repeat(2, 1fr);
    gap: 1.25rem;
  }
  .dnh-difference-block .dnh-difference-title {
    font-size: clamp(1.55rem, 6vw, 2.2rem);
  }
  .dnh-difference-block .dnh-difference-desc {
    font-size: var(--logiweb-block-text-size-sm);
  }
  .dnh-difference-block .dnh-difference-inner {
    gap: 2.5rem;
  }
}
.reviews-spotlight-block {
  width: 100%;
  padding: 5.25rem 1rem 4.3rem;
}
.reviews-spotlight-block .reviews-spotlight-inner {
  width: min(1020px, 94vw);
  margin: 0 auto;
  display: flex;
  flex-direction: column;
  align-items: center;
  gap: 1.55rem;
}
.reviews-spotlight-block .reviews-spotlight-header {
  text-align: center;
  display: flex;
  flex-direction: column;
  gap: 0.2rem;
  background: none !important;
}
.reviews-spotlight-block .reviews-spotlight-eyebrow {
  margin: 0;
  text-transform: uppercase;
  letter-spacing: 0.21em;
  color: var(--logiweb-block-subtitle-color);
  font-family: var(--logiweb-block-subtitle-font-family);
  font-size: var(--logiweb-block-subtitle-size);
  font-weight: 700;
}
.reviews-spotlight-block .reviews-spotlight-title {
  margin: 0;
  color: var(--logiweb-block-title-color);
  font-family: var(--logiweb-block-title-font-family);
  font-size: var(--logiweb-block-title-size-section);
  font-weight: var(--logiweb-block-title-font-weight-strong);
  line-height: 1.1;
}
.reviews-spotlight-block .reviews-spotlight-title span {
  color: var(--logiweb-block-title-highlight-color);
}
.reviews-spotlight-block .reviews-spotlight-stats {
  width: min(760px, 100%);
  display: grid;
  grid-template-columns: repeat(4, 1fr);
  gap: 1.65rem;
  margin-top: 0.2rem;
}
.reviews-spotlight-block .reviews-spotlight-stat {
  text-align: left;
}
.reviews-spotlight-block .reviews-spotlight-stat-value {
  margin: 0;
  color: var(--logiweb-block-title-color);
  font-family: var(--logiweb-block-title-font-family);
  font-size: var(--logiweb-block-text-size-xlg);
  font-weight: var(--logiweb-block-title-font-weight-strong);
  line-height: 1.05;
}
.reviews-spotlight-block .reviews-spotlight-stat-label {
  margin: 0.22rem 0 0;
  color: color-mix(in srgb, var(--logiweb-block-text-color) 76%, #fff 24%);
  font-family: var(--logiweb-block-text-font-family);
  font-size: var(--logiweb-block-text-size-sm);
  font-weight: var(--logiweb-block-text-font-weight);
  line-height: 1.35;
}
.reviews-spotlight-block .reviews-spotlight-google-pill {
  width: -moz-fit-content;
  width: fit-content;
  min-height: 2.6rem;
  border-radius: var(--rounded-full);
  border: 1px solid var(--logiweb-block-surface-border);
  background: var(--logiweb-block-card-background);
  display: inline-flex;
  align-items: center;
  justify-content: center;
  gap: 0.72rem;
  padding: 0.85rem 1.4rem;
  color: var(--logiweb-block-title-color);
}
.reviews-spotlight-block .reviews-spotlight-google-icon {
  width: 1.35rem;
  height: 1.35rem;
  border-radius: var(--rounded-full);
  background: var(--logiweb-block-title-highlight-color);
  color: var(--logiweb-btn-primary-text);
  display: inline-flex;
  align-items: center;
  justify-content: center;
  font-size: var(--logiweb-block-text-size-sm);
  font-weight: 700;
  font-family: var(--logiweb-block-text-font-family);
  line-height: 1;
}
.reviews-spotlight-block .reviews-spotlight-google-label,
.reviews-spotlight-block .reviews-spotlight-google-score,
.reviews-spotlight-block .reviews-spotlight-google-meta {
  margin: 0;
  font-family: var(--logiweb-block-text-font-family);
  font-size: var(--logiweb-block-text-size-sm);
  line-height: 1;
}
.reviews-spotlight-block .reviews-spotlight-google-label,
.reviews-spotlight-block .reviews-spotlight-google-score {
  color: var(--logiweb-block-title-color);
  font-weight: 600;
}
.reviews-spotlight-block .reviews-spotlight-google-score {
  font-weight: 700;
}
.reviews-spotlight-block .reviews-spotlight-google-stars {
  color: #f2c519;
  font-size: var(--logiweb-block-text-size-md);
  line-height: 1;
  letter-spacing: 0.14em;
}
.reviews-spotlight-block .reviews-spotlight-google-meta {
  color: color-mix(in srgb, var(--logiweb-block-text-color) 74%, #fff 26%);
  font-weight: var(--logiweb-block-text-font-weight);
}
.reviews-spotlight-block .reviews-spotlight-carousel {
  width: min(920px, 100%);
  display: grid;
  grid-template-columns: 3.1rem minmax(0, 1fr) 3.1rem;
  align-items: center;
  gap: 1rem;
  margin-top: 1.45rem;
}
.reviews-spotlight-block .reviews-spotlight-track {
  min-height: 265px;
  position: relative;
}
.reviews-spotlight-block .reviews-spotlight-slide {
  position: absolute;
  inset: 0;
  opacity: 0;
  pointer-events: none;
  transform: translateX(16px);
  transition: opacity 0.3s ease, transform 0.3s ease;
}
.reviews-spotlight-block .reviews-spotlight-slide.is-active {
  opacity: 1;
  pointer-events: auto;
  transform: translateX(0);
}
.reviews-spotlight-block .reviews-spotlight-arrow {
  width: 2.2rem;
  height: 2.2rem;
  border-radius: var(--rounded-full);
  border: 1px solid var(--logiweb-block-surface-border);
  background: transparent;
  color: color-mix(in srgb, var(--logiweb-block-text-color) 72%, #fff 28%);
  display: inline-flex;
  align-items: center;
  justify-content: center;
  font-size: var(--logiweb-block-text-size-sm);
  cursor: pointer;
  transition: all 0.24s ease;
}
.reviews-spotlight-block .reviews-spotlight-arrow:hover {
  background: var(--logiweb-block-card-background);
  color: var(--logiweb-block-title-color);
  border-color: color-mix(in srgb, var(--logiweb-block-title-highlight-color) 22%, var(--logiweb-block-surface-border) 78%);
  transform: translateY(-1px);
}
.reviews-spotlight-block .reviews-spotlight-author-row {
  display: grid;
  grid-template-columns: auto auto auto 1fr;
  align-items: center;
  gap: 0.75rem;
}
.reviews-spotlight-block .reviews-spotlight-avatar {
  width: 2.45rem;
  height: 2.45rem;
  border-radius: var(--rounded-full);
  background: color-mix(in srgb, var(--logiweb-block-title-highlight-color) 18%, #fff 82%);
  color: var(--logiweb-block-title-highlight-color);
  display: inline-flex;
  align-items: center;
  justify-content: center;
  font-family: var(--logiweb-block-title-font-family);
  font-size: var(--logiweb-block-text-size-md);
  font-weight: 700;
}
.reviews-spotlight-block .reviews-spotlight-author-main {
  display: flex;
  flex-direction: column;
  gap: 0.08rem;
}
.reviews-spotlight-block .reviews-spotlight-author-name {
  margin: 0;
  color: var(--logiweb-block-title-color);
  font-family: var(--logiweb-block-title-font-family);
  font-size: var(--logiweb-block-text-size-md);
  font-weight: 700;
  line-height: 1.2;
}
.reviews-spotlight-block .reviews-spotlight-author-location {
  margin: 0;
  color: color-mix(in srgb, var(--logiweb-block-text-color) 82%, #fff 18%);
  font-family: var(--logiweb-block-text-font-family);
  font-size: var(--logiweb-block-text-size-sm);
  font-weight: var(--logiweb-block-text-font-weight);
  line-height: 1.2;
}
.reviews-spotlight-block .reviews-spotlight-verified {
  justify-self: start;
  display: inline-flex;
  align-items: center;
  gap: 0.38rem;
  border-radius: var(--rounded-full);
  background: color-mix(in srgb, var(--logiweb-block-accent-green) 16%, #fff 84%);
  color: var(--logiweb-block-accent-green);
  padding: 0.18rem 0.62rem;
  font-family: var(--logiweb-block-text-font-family);
  font-size: var(--logiweb-block-text-size-sm);
  font-weight: 600;
  white-space: nowrap;
}
.reviews-spotlight-block .reviews-spotlight-age {
  justify-self: end;
  color: color-mix(in srgb, var(--logiweb-block-text-color) 62%, #fff 38%);
  font-family: var(--logiweb-block-text-font-family);
  font-size: var(--logiweb-block-text-size-sm);
  font-weight: var(--logiweb-block-text-font-weight);
  line-height: 1;
}
.reviews-spotlight-block .reviews-spotlight-meta-row {
  margin-top: 1rem;
  display: flex;
  align-items: center;
  gap: 0.9rem;
}
.reviews-spotlight-block .reviews-spotlight-rating {
  color: #f2c519;
  font-size: var(--logiweb-block-text-size-md);
  line-height: 1;
  letter-spacing: 0.12em;
}
.reviews-spotlight-block .reviews-spotlight-tag {
  border-radius: var(--rounded-full);
  background: color-mix(in srgb, var(--logiweb-block-title-highlight-color) 15%, #fff 85%);
  color: var(--logiweb-block-title-highlight-color);
  padding: 0.18rem 0.65rem;
  font-family: var(--logiweb-block-text-font-family);
  font-size: var(--logiweb-block-text-size-sm);
  font-weight: 500;
  line-height: 1.2;
}
.reviews-spotlight-block .reviews-spotlight-quote {
  margin: 1rem 0 0;
  color: var(--logiweb-block-title-color);
  font-family: var(--logiweb-block-text-font-family);
  font-size: var(--logiweb-block-text-size-md);
  font-weight: var(--logiweb-block-text-font-weight);
  line-height: 1.55;
  max-width: 74ch;
}
.reviews-spotlight-block .reviews-spotlight-helpful {
  margin: 1.05rem 0 0;
  color: color-mix(in srgb, var(--logiweb-block-text-color) 70%, #fff 30%);
  font-family: var(--logiweb-block-text-font-family);
  font-size: var(--logiweb-block-text-size-sm);
  font-weight: var(--logiweb-block-text-font-weight);
  display: inline-flex;
  align-items: center;
  gap: 0.44rem;
}
.reviews-spotlight-block .reviews-spotlight-dots {
  display: inline-flex;
  align-items: center;
  gap: 0.48rem;
  margin-top: 0.45rem;
}
.reviews-spotlight-block .reviews-spotlight-dot {
  width: 0.55rem;
  height: 0.55rem;
  border: 0;
  border-radius: var(--rounded-full);
  background: color-mix(in srgb, var(--logiweb-block-text-color) 35%, #fff 65%);
  cursor: pointer;
  transition: all 0.25s ease;
}
.reviews-spotlight-block .reviews-spotlight-dot.is-active {
  width: 1.45rem;
  background: var(--logiweb-block-title-highlight-color);
}
@media (max-width: 980px) {
  .reviews-spotlight-block .reviews-spotlight-stats {
    width: min(640px, 100%);
    gap: 1rem;
  }
  .reviews-spotlight-block .reviews-spotlight-carousel {
    grid-template-columns: 2.5rem minmax(0, 1fr) 2.5rem;
  }
}
@media (max-width: 767px) {
  .reviews-spotlight-block {
    padding: 4.1rem 0.9rem 3.7rem;
  }
  .reviews-spotlight-block .reviews-spotlight-inner {
    gap: 1.35rem;
  }
  .reviews-spotlight-block .reviews-spotlight-stats {
    grid-template-columns: repeat(2, 1fr);
    width: min(380px, 100%);
    gap: 0.8rem 1.2rem;
  }
  .reviews-spotlight-block .reviews-spotlight-google-pill {
    flex-wrap: wrap;
    row-gap: 0.45rem;
    justify-content: center;
    padding: 0.5rem 0.92rem;
  }
  .reviews-spotlight-block .reviews-spotlight-carousel {
    grid-template-columns: 1fr;
    gap: 0.75rem;
    margin-top: 0.9rem;
  }
  .reviews-spotlight-block .reviews-spotlight-track {
    min-height: 338px;
  }
  .reviews-spotlight-block .reviews-spotlight-arrow {
    display: none;
  }
  .reviews-spotlight-block .reviews-spotlight-author-row {
    grid-template-columns: auto 1fr;
  }
  .reviews-spotlight-block .reviews-spotlight-verified {
    justify-self: start;
    grid-column: 1/-1;
  }
  .reviews-spotlight-block .reviews-spotlight-age {
    justify-self: start;
    grid-column: 1/-1;
    margin-top: 0.12rem;
  }
  .reviews-spotlight-block .reviews-spotlight-quote {
    font-size: var(--logiweb-block-text-size-sm);
    line-height: 1.5;
  }
}
.wpcf7-form-control {
  font-size: var(--logiweb-block-text-size-sm) !important;
}

/*# sourceMappingURL=block-12.css.map*/